machine/gesture_model.tflite (tflite, 6060 bytes, 6 tensors)

arith.constant f4 [12]
-0.01790649 0.0 0.021326752 0.28431395 0.37346002 -0.07264502 -0.0064840517 0.07486208
0.1259647 0.0 -0.03131478 0.004920394
00000000: a2b0 92bc 0000 0000 71b5 ae3c 9991 913e
00000010: 2736 bf3e eac6 94bd 2b78 d4bb 4a51 993d
00000020: e4fc 003e 0000 0000 ed43 00bd 423b a13b

arith.constant1 f4 [14]
-0.019346232 0.3284942 0.1981921 0.19496821 0.0 -0.0564375 0.076900825 -0.00050073897
0.0 0.049255937 0.3034342 -0.10234373 0.12812516 -0.046600573
00000000: fd7b 9ebc 6430 a83e dff2 4a3e bfa5 473e
00000010: 0000 0000 022b 67bd 2e7e 9d3d 0644 03ba
00000020: 0000 0000 98c0 493d ba5b 9b3e 9799 d1bd
00000030: 3e33 033e 3ee0 3ebd

arith.constant3 f4 [12, 1, 1, 14]
0.32498303 -1.310232 -0.73367506 0.7971053 -0.099214524 0.58833116 0.03454294 0.79050934
0.1452294 1.1064298 -1.5219592 0.5283856 -0.3939251 -0.34112772 -0.00078237057 0.050622046
-0.4280709 -0.4726054 -0.40135172 -0.4521028 -0.0014166534 -0.4068336 0.042555273 0.022195637
0.12059814 -0.14146319 0.06791556 0.42974788 -0.33673126 2.3460674 1.8939778 0.98180234
0.32691216 -0.5712095 -0.47921002 -0.3590943 -0.40791157 0.78858924 1.5325756 0.22024962
-0.14757219 -0.34912297 0.39567646 1.12202 1.3170311 0.55222183 0.32078505 -0.42286426
0.10438684 -0.8128935 0.20795614 -0.44031876 1.2265482 0.37059763 0.05944578 0.28402483
0.24457347 -0.47160316 -0.5956248 -0.9369079 0.24776602 0.08693466 0.5735257 0.8497132
-0.02409181 -1.3455294 0.118751846 -0.2964612 0.70301586 -0.35089815 -0.114371516 -0.5252441
-0.16812404 0.13804054 -0.41032156 0.5103303 0.27830875 0.5590733 0.20865738 1.0660355
0.17801099 -0.16764367 0.20921461 -0.50347453 0.2647034 -0.692531 -0.088866115 0.075852826
0.20886219 0.54792225 -0.12912968 -0.027363718 0.3198611 1.1791012 -0.3372623 0.18930078
-0.47618374 -0.33435217 -0.23558836 0.7505206 0.74210125 0.9162654 -0.36854684 -0.0598991
-0.21453302 -0.55654275 0.4397366 -0.8356267 0.9460806 1.0166371 0.6263008 0.26099166
-0.30519322 -0.9102657 -0.12858665 -0.21153763 0.1717146 0.2345152 -0.34262878 -0.61078894
-0.45649138 -0.76289374 -1.1976924 1.7054914 1.1076479 -0.1088636 0.30571985 -0.30524158
-0.12843272 0.2722537 -0.33089483 -0.26651227 -0.0027025044 -0.29631364 0.1436863 0.12683946
-0.29278606 -0.39930102 -0.11324307 -0.13190672 0.40976456 -0.27332652 0.5093724 -0.59468555
-0.25680518 0.42962182 0.37116677 -0.804705 -0.056058884 0.30741113 0.37531194 0.37944135
0.50031763 0.04036647 0.13898611 0.40243918 0.15502617 0.16625118 -0.14740333 -0.06611202
-0.115856275 0.32655025 0.2071876 -0.4499267 -0.41481075 0.03798665 -0.03065039 -0.32060856
00000000: 2d64 a63e afb5 a7bf 21d2 3bbf 180f 4c3f
00000010: fc30 cbbd df9c 163f e67c 0d3d d25e 4a3f
00000020: 04b7 143e 7e9f 8d3f 8fcf c2bf 4744 073f
00000030: 8db0 c9be 4ba8 aebe 0018 4dba 1059 4f3d
00000040: 1c2c dbbe 56f9 f1be f97d cdbe 057a e7be
00000050: 00af b9ba 7e4c d0be 704e 2e3d a0d3 b53c
00000060: 28fc f63d badb 10be 5017 8b3d ea07 dc3e
00000070: 0a68 acbe f825 1640 dd6d f23f 6657 7b3f
00000080: 0861 a73e c93a 12bf 045b f5be 35db b7be
00000090: c9d9 d0be fce0 493f 702b c43f 1e89 613e
000000a0: 2a1d 17be 3fc0 b2be 1b96 ca3e 5a9e 8f3f
000000b0: 7a94 a83f 695e 0d3f f03d a43e aa81 d8be
000000c0: c4c8 d53d ca19 50bf 74f2 543e 7671 e1be
000000d0: 88ff 9c3f f9be bd3e 6b7d 733d b46b 913e
000000e0: 7871 7a3e f875 f1be de7a 18bf 32d9 6fbf
000000f0: 60b6 7d3e cd0a b23d 95d2 123f ce86 593f
00000100: 305c c5bc 4f3a acbf 2b34 f33d c3c9 97be
00000110: d9f8 333f eca8 b3be 9d3b eabd 6676 06bf
00000120: b528 2cbe 805a 0d3e ab15 d2be 02a5 023f
00000130: 7c7e 8e3e 6e1f 0f3f 48aa 553e da73 883f
00000140: 8348 363e c8aa 2bbe 5b3c 563e b5e3 00bf
00000150: 3487 873e b649 31bf 70ff b5bd ba58 9b3d
00000160: f8df 553e a244 0c3f 923a 04be e029 e0bc
00000170: d6c4 a33e caec 963f a5ad acbe 10d8 413e
00000180: 5bce f3be 3530 abbe 133e 71be 1e22 403f
00000190: 59fa 3d3f 5f90 6a3f 2cb2 bcbe c258 75bd
000001a0: 8bae 5bbe 9679 0ebf 2825 e13e a2eb 55bf
000001b0: 5732 723f 2a21 823f 4055 203f b3a0 853e
000001c0: 4942 9cbe 2c07 69bf 38ac 03be 529d 58be
000001d0: f4d5 2f3e c124 703e 0a6d afbe aa5c 1cbf
000001e0: 3db9 e9be 014d 43bf fc4d 99bf 8b4d da3f
000001f0: 68c7 8d3f e1f3 debd 5087 9c3e a048 9cbe
00000200: de83 03be d664 8b3e 0c6b a9be 4c74 88be
00000210: 801c 31bb 6cb6 97be 8022 133e 34e2 013e
00000220: 0ee8 95be 2f71 ccbe fceb e7bd 8e12 07be
00000230: a9cc d13e 74f1 8bbe 3b66 023f 503d 18bf
00000240: f87b 83be 64f7 db3e 9209 be3e 2601 4ebf
00000250: 009e 65bd fe64 9d3e e328 c03e 2346 c23e
00000260: d114 003f 5057 253d 6052 0e3e 820c ce3e
00000270: 2ebf 1e3e c03d 2a3e e6f0 16be bd65 87bd
00000280: 0e46 edbd 9831 a73e fc28 543e cb5c e6be
00000290: 1362 d4be e497 1b3d 8716 fbbc ce26 a4be

arith.constant4 f4 [14, 1, 2, 1]
-0.34116226 -0.13511774 0.041603573 -0.85312366 -0.8656908 0.28684253 -0.42727295 0.15905641
-0.33637503 -0.3939714 0.6020765 0.28118986 0.43419582 0.54288596 -0.7961657 0.13632125
-0.22757769 -0.1783725 1.25876 -1.1416982 -0.9381682 0.172851 -0.53498894 0.8953248
0.21082056 0.8140294 -0.04919705 -0.33682904
00000000: d2ac aebe 4e5c 0abe 8268 2a3d 5066 5abf
00000010: ea9d 5dbf 06dd 923e 85c3 dabe afdf 223e
00000020: 5939 acbe 9fb6 c9be af21 1a3f 1ef8 8f3e
00000030: ea4e de3e 93fa 0a3f 84d1 4bbf cc97 0b3e
00000040: 200a 69be 48a7 36be 0c1f a13f 2b23 92bf
00000050: cb2b 70bf daff 303e 09f5 08bf 0234 653f
00000060: 58e1 573e 3b64 503f d982 49bd db74 acbe

arith.constant5 f4 [5, 60]
-0.38364372 -0.20328683 0.95872265 0.66843873 0.33015066 -0.56382865 -1.1135669 0.2795756
-0.0860639 -0.16806893 0.2981061 -0.12821579 0.055916056 0.07753354 0.122930385 -0.56107146
0.6165832 0.012483768 0.006345274 0.012397464 -0.07344177 0.15349293 0.4416042 -0.17704391
0.39206117 0.012529105 -0.60282475 -1.0722922 -0.319489 0.3361977 0.2002873 -0.2067611
0.25454044 -0.16774543 0.210525 0.021985624 0.09040332 -0.027549356 0.03523034 -0.3122175
-0.1779078 -0.22684589 -0.14318274 0.14688288 -0.13769217 -0.039852113 -0.1538153 -0.014127791
0.052006 -0.05340466 0.23257262 -0.06412643 -0.021193085 -0.17348787 -0.17645423 0.24427389
-0.03442848 -0.1047453 -0.10166226 0.2384044 -1.0697848 -0.15579446 -1.440308 -0.11586049
0.7041001 -0.04242705 -0.3813287 0.567767 0.59422386 -0.07599117 0.09458798 -0.2970643
-0.114783 0.063053966 1.4756926 0.8047583 -1.1286045 0.15784927 0.24327214 0.6331229
-0.29666346 0.19985348 -0.037199944 -0.104358 0.036601204 -0.30017185 0.91845334 1.1165626
0.057286188 0.27977726 0.07929083 0.7441636 -0.3501029 0.07422304 0.1616821 0.13518713
-0.012661254 0.052233845 -0.14392988 -0.059547566 -0.25748098 -0.25972337 -0.29441255 -0.24590452
-0.09170958 -0.13307212 0.098845296 -0.30363086 -0.040274717 0.28206146 0.21316326 0.03811178
0.1347167 -0.31423 0.09836142 -0.14477427 -0.30892932 0.036841482 -0.027736213 -0.16492555
0.4727271 -0.23166436 -1.3530214 -1.643176 -3.4209003 0.2226236 0.365621 -1.7706414
-0.06393589 0.18653762 0.03157546 0.21538116 0.33458772 -0.030827343 -1.2062724 -0.5880476
0.14544636 -0.10618601 0.015245288 -0.27399668 -0.1982399 -0.221138 -0.20789547 -0.06816564
-0.30613226 -0.18767533 -0.8798467 -1.1391809 -0.23982483 0.1244982 -0.17839547 -0.14286368
0.14420772 -0.18289442 -0.09600418 0.13157937 0.1531311 0.24215543 0.084409684 -0.11943469
0.23368758 -0.13099587 -0.15795532 -0.17721161 0.19472075 0.08448741 -0.022645777 -0.21486619
-0.10202064 -0.18061954 -0.20283872 0.16558933 0.08743752 -0.31006664 0.20360756 0.12032388
-0.32638487 0.24994016 0.20859042 -0.26071897 0.14457616 -0.2505293 0.6498018 -0.22080788
0.2977346 0.32751602 0.41104534 -0.5875229 -1.4644856 -0.13916413 0.039972175 -0.25570002
-0.80880904 -0.19684625 -0.71814287 -0.011291587 0.6646995 -0.28004482 -0.45845446 -0.18953119
-0.24864618 -0.20886597 -0.4242526 0.25105366 -0.68881583 -0.21615861 -0.955301 0.08256612
0.56854343 -0.51518965 -0.7077005 0.77098715 0.29423356 -0.3028327 -0.67292064 -0.27950653
0.4581032 -0.23695506 0.10597026 0.019194968 -0.22190166 0.28328496 0.05217927 -0.14281927
0.27721632 0.19629675 0.24075636 -0.2250067 0.15313017 -0.15884194 -0.27518588 0.10636845
-0.16930799 -0.13874443 0.042496424 0.20720656 -0.044209428 0.026663959 0.3830654 0.08206594
0.3036927 -0.2512546 -0.65826535 -1.234714 -1.3444911 -0.25817287 0.20755088 -0.07817385
0.51872295 0.057315886 0.23420593 -0.0577241 0.7043737 0.090827286 -1.3599768 -0.7248608
00000000: f36c c4be 6c2a 50be d96e 753f cd1e 2b3f
00000010: 8209 a93e 1357 10bf 5c89 8ebf 8824 8f3e
00000020: 4542 b0bd 431a 2cbe 5da1 983e 004b 03be
00000030: 3c08 653d e8c9 9e3d edc2 fb3d 61a2 0fbf
00000040: 66d8 1d3f b888 4c3c 04ec cf3b bc1e 4b3c
00000050: a468 96bd 402d 1d3e f219 e23e 004b 35be
00000060: 3ebc c83e e046 4d3c b952 1abf df40 89bf
00000070: 1094 a3be 1b22 ac3e 1d18 4d3e 2fb9 53be
00000080: 2053 823e 75c5 2bbe de93 573e 321b b43c
00000090: 6025 b93d 30af e1bc b04d 103d f9da 9fbe
000000a0: 762d 36be 4a4a 68be 7f9e 12be 7768 163e
000000b0: 2dff 0cbe f83b 23bd c281 1dbe 4078 67bc
000000c0: 3e04 553d d8be 5abd 8427 6e3e b854 83bd
000000d0: 1f9d adbc cea6 31be 6bb0 34be ef22 7a3e
000000e0: e104 0dbd b484 d6bd 4e34 d0bd 4820 743e
000000f0: b5ee 88bf 9588 1fbe 035c b8bf 4448 edbd
00000100: e73f 343f fdc7 2dbd 843d c3be 2e59 113f
00000110: 0e1f 183f 42a1 9bbd 58b7 c13d d018 98be
00000120: 5913 ebbd 7022 813d 7fe3 bc3f a404 4e3f
00000130: 1d76 90bf 3da3 213e 551c 793e 5814 223f
00000140: 46e4 97be 64a6 4c3e f85e 18bd a6b9 d5bd
00000150: 25eb 153d 20b0 99be c21f 6b3f 86eb 8e3f
00000160: eca4 6a3d f73e 8f3e 3b63 a23d 8181 3e3f
00000170: b040 b3be 4002 983d fe8f 253e 7f6e 0a3e
00000180: 2671 4fbc 28f3 553d 5b62 13be 26e8 73bd
00000190: 8cd4 83be 76fa 84be 3ebd 96be 65ce 7bbe
000001a0: 3bd2 bbbd 0f44 08be 676f ca3d 8175 9bbe
000001b0: 1af7 24bd 5c6a 903e 7847 5a3e 191b 1c3d
000001c0: 2df3 093e c1e2 a0be b671 c93d b53f 14be
000001d0: fc2b 9ebe 18e7 163d 0e37 e3bc 3ee2 28be
000001e0: 4909 f23e 6c39 6dbe ce2f adbf 9753 d2bf
000001f0: 08f0 5ac0 71f7 633e ad32 bb3e 61a4 e2bf
00000200: d2f0 82bd b803 3f3e 4555 013d e18c 5c3e
00000210: 154f ab3e a089 fcbc 2267 9abf 4a8a 16bf
00000220: e4ef 143e 0d78 d9bd 5fc7 793c 4b49 8cbe
00000230: 66ff 4abe 0072 62be 8de2 54be 6d9a 8bbd
00000240: 5ebd 9cbe f62d 40be a23d 61bf aed0 91bf
00000250: a494 75be eaf8 fe3d 4dad 36be db4a 12be
00000260: 30ab 133e ad48 3bbe d79d c4bd bebc 063e
00000270: 66ce 1c3e 98f7 773e fcde ac3d 2d9a f4bd
00000280: cc4b 6f3e c823 06be 0abf 21be f676 35be
00000290: e064 473e bc07 ad3d a383 b9bc e205 5cbe
000002a0: 33f0 d0bd 54f4 38be f4b4 4fbe 4090 293e
000002b0: 7112 b33d 0ec1 9ebe 807e 503e 5e6c f63d
000002c0: eb1b a7be 50f0 7f3e ba98 553e f57c 85be
000002d0: c60b 143e 6045 80be 6959 263f 761b 62be
000002e0: ab70 983e 2eb0 a73e 8974 d23e e767 16bf
000002f0: 4474 bbbf 0b81 0ebe ddb9 233d 1deb 82be
00000300: 1c0e 4fbf 1092 49be 36d8 37bf 5900 39bc
00000310: bf29 2a3f 0962 8fbe 8bba eabe 7714 42be
00000320: 1b9d 7ebe f6e0 55be a337 d9be 1b8a 803e
00000330: 3c56 30bf af58 5dbe 9b8e 74bf 6d18 a93d
00000340: 108c 113f 78e3 03bf dc2b 35bf 6a5f 453f
00000350: c8a5 963e e30c 9bbe 8744 2cbf 7b1b 8fbe
00000360: 818c ea3e 59a4 72be f006 d93d c43e 9d3c
00000370: 303a 63be ba0a 913e eeb9 553d 373f 12be
00000380: 4cef 8d3e 0402 493e d688 763e 2868 66be
00000390: 28ce 1c3e 76a7 22be 2ae5 8cbe b4d7 d93d
000003a0: 135f 2dbe 0513 0ebe bb10 2e3d f52d 543e
000003b0: f214 35bd 606e da3c 2621 c43e 3012 a83d
000003c0: 9c7d 9b3e 71a4 80be 1484 28bf 1c0b 9ebf
000003d0: 4918 acbf 3c2f 84be 3888 543e 9d19 a0bd
000003e0: 07cb 043f 10c4 6a3d aed3 6f3e 1b70 6cbd
000003f0: d651 343f a803 ba3d b813 aebf 7a90 39bf

arith.constant6 f4 [5]
0.018632814 -0.029905472 -0.012207932 0.106639 -0.078618385
00000000: d8a3 983c 52fc f4bc c703 48bc 8c65 da3d
00000010: ad02 a1bd
