machine/gesture_model.tflite (tflite, 6832 bytes, 6 tensors)

arith.constant f4 [12]
0.065854765 0.07431335 0.36773762 -0.09951237 -0.23853445 -0.16518804 0.04504687 -0.015200793
0.0 0.14901869 -0.03449236 0.10162107
00000000: ddde 863d 9931 983d 1b48 bc3e 24cd cbbd
00000010: 6042 74be 0e27 29be 1183 383d bf0c 79bc
00000020: 0000 0000 5b98 183e dc47 0dbd b51e d03d

arith.constant1 f4 [14]
0.12787643 0.018673737 -0.022268018 0.113096066 0.0 0.09374671 0.19378036 -0.10376684
0.2332221 -0.009174586 0.0 0.0 0.057344377 0.0
00000000: 0af2 023e aaf9 983c 6b6b b6bc e99e e73d
00000010: 0000 0000 46fe bf3d 5c6e 463e b683 d4bd
00000020: c6d1 6e3e 0151 16bc 0000 0000 0000 0000
00000030: f0e1 6a3d 0000 0000

arith.constant4 f4 [12, 1, 2, 14]
-0.45029774 0.7282981 0.11070446 0.40354496 -0.059489965 -0.18253404 -0.15561768 0.6561561
-0.57062185 -0.009375268 -0.15750152 0.21855682 0.30073443 -0.18311197 -0.93629336 -0.6708955
-0.24798714 -0.10339848 -0.22515438 -0.8109836 -0.68597084 0.2020601 -0.40889058 0.27658343
-0.21374942 0.21007937 -0.37627837 0.16305399 0.6304262 -0.562663 -0.06849812 -0.6810955
-0.17556587 0.3939182 0.21623941 -0.77358 -0.6733873 -0.24164835 -0.15723865 -0.16714218
0.20081443 0.28859317 0.7261494 0.66874427 0.27559277 -1.0411329 -0.16438662 0.73660344
0.43360162 0.43056276 0.8524202 -0.34349328 0.18834388 -0.23410764 0.50401473 0.30120814
0.18090253 0.30332687 0.14198779 -0.7202207 -0.2549039 0.6769354 -1.3171842 -0.32577515
-1.2306844 -0.077219486 0.32656604 0.015737027 0.0052347686 0.055003285 0.7367833 0.20062934
-0.14013521 -0.9553591 -0.13813597 0.8135349 -0.4830762 0.13379735 -0.690622 0.057070844
0.20730627 0.19340974 0.55941004 0.14529464 0.6146078 -0.080573544 0.3125481 1.0173316
-0.19588156 0.13937214 0.8034555 -0.01161307 1.0996672 -0.2483171 0.31460583 -0.024140775
0.113326795 0.1728741 0.34113026 0.26453736 -0.26297137 0.9852337 -0.036953926 0.082828216
1.1983739 -0.39175978 0.8170847 0.071729004 0.17685074 -0.20998645 -0.24331439 -0.1067719
0.17931613 0.38532287 0.010909657 0.53392684 0.21530461 -0.070823014 1.3083683 0.5035042
1.5300555 0.00079616095 0.12548414 -0.083901465 0.29149714 0.15165564 -0.39225778 0.047105893
0.007037006 1.0838848 0.21576387 -0.45539814 0.9076582 0.37301806 0.44350752 -0.012303595
0.3160544 -0.20883742 -0.20205438 0.27304852 0.78406304 -0.2744472 -0.20523454 -0.57556796
-0.13355868 0.6520957 1.0689554 -0.057511788 0.662553 0.24481322 0.023878068 0.13572565
0.67021894 0.25704795 -0.81389034 0.16295822 -0.32924023 -0.37818515 -0.26497144 -0.36130324
0.6640775 0.37212878 0.9115776 0.29567307 0.2447195 -0.16429445 0.02756507 0.057819515
-0.4846935 0.64902776 -0.31547767 0.81873083 -0.1752662 -0.26823342 -0.086862735 0.2206274
0.6411942 0.089344844 0.26860744 0.12348279 0.17176391 -0.15443504 -0.6120868 -0.7212719
0.27656633 0.73376966 0.1688776 -0.3457026 0.20125858 -0.78579706 -0.2756717 0.1463286
-0.062122107 0.3377592 -0.20625204 -0.25204176 -0.022880672 -0.036267646 0.28801167 0.21914408
0.277705 -0.08200549 0.087312214 -0.31800777 0.1665116 0.32828957 -0.20841362 -0.10959971
-0.23726691 0.09225696 0.0959911 -0.31165025 0.24974102 0.029619277 -0.086328655 0.19189878
-0.17970099 -0.06564441 0.08443421 0.15846139 -0.16429535 -0.12849231 0.119459495 -0.063632846
-0.065097004 -0.2073743 -0.085345715 0.24864668 0.11713949 -0.314513 0.14728141 -0.28880787
-0.03628239 0.110275954 -0.2939129 -0.27396536 -0.06343621 0.1467 0.048766673 0.029952317
0.25191677 -0.07768485 -0.10848291 -0.33110338 -0.2657712 -0.06804499 -0.20140445 -0.31982037
-0.2050755 -0.26695102 -0.33162048 0.117430896 -0.35547966 0.4925844 0.31985652 -0.035176817
00000000: 6d8d e6be bf71 3a3f 05b9 e23d 729d ce3e
00000010: c0ab 73bd 34ea 3abe 3e5a 1fbe d9f9 273f
00000020: 4614 12bf b99a 19bc 1448 21be 5ccd 5f3e
00000030: ddf9 993e b481 3bbe ecb0 6fbf cfbf 2bbf
00000040: 57f0 7dbe 95c2 d3bd df8e 66be 9f9c 4fbf
00000050: c99b 2fbf d8e8 4e3e 1b5a d1be 589c 8d3e
00000060: 21e1 5abe 0c1f 573e 8fa7 c0be a0f7 263e
00000070: 9d63 213f af0a 10bf be48 8cbd 465c 2ebf
00000080: 8ac7 33be a5af c93e dd6d 5d3e 5709 46bf
00000090: 1c63 2cbf aa72 77be 2b03 21be 5227 2bbe
000000a0: 4ca2 4d3e 7cc2 933e ede4 393f d332 2b3f
000000b0: 7f1a 8d3e d843 85bf f754 28be 0b92 3c3f
000000c0: 0801 de3e b972 dc3e 3638 5a3f 5ade afbe
000000d0: 38dd 403e eab9 6fbe 1c07 013f f437 9a3e
000000e0: 833e 393e a94d 9b3e 3f65 113e 6260 38bf
000000f0: c482 82be a34b 2d3f 7e99 a8bf 00cc a6be
00000100: 1187 9dbf 4025 9ebd aa33 a73e f0ea 803c
00000110: 6c88 ab3b 204b 613d d59d 3c3f c771 4d3e
00000120: 9b7f 0fbe 6a92 74bf 8473 0dbe d343 503f
00000130: c455 f7be 2c02 093e 9acc 30bf 1ec3 693d
00000140: 1848 543e 340d 463e 7f35 0f3f 1ec8 143e
00000150: f056 1d3f be03 a5bd 4e06 a03e ec37 823f
00000160: 2d95 48be 92b7 0e3e 42af 4d3f bf44 3ebc
00000170: e5c1 8c3f d646 7ebe 0414 a13e e0c2 c5bc
00000180: e117 e83d e805 313e a0a8 ae3e 7171 873e
00000190: 2fa4 86be 4738 7c3f 005d 17bd d7a1 a93d
000001a0: 5164 993f bd94 c8be 772c 513f a8e6 923d
000001b0: 5c18 353e b006 57be 6827 79be 3aab dabd
000001c0: a69e 373e 0a49 c53e 6bbe 323c 6eaf 083f
000001d0: d078 5c3e a80b 91bd 9d78 a73f a7e5 003f
000001e0: dcd8 c33f 75b5 503a ea7e 003e 88d4 abbd
000001f0: 1d3f 953e 9e4b 1b3e 03d6 c8be 1cf2 403d
00000200: af96 e63b bdbc 8a3f 34f1 5c3e f229 e9be
00000210: 4a5c 683f 39fc be3e 6b13 e33e 0595 49bc
00000220: e2d1 a13e 7ad9 55be 58e7 4ebe 04cd 8b3e
00000230: 5bb8 483f 5884 8cbe 0129 52be 6c58 13bf
00000240: 9bc3 08be beef 263f 88d3 883f 7b91 6bbd
00000250: 139d 293f 51b0 7a3e f09b c33c aafb 0a3e
00000260: 7893 2b3f ca9b 833e 1e5b 50bf 85de 263e
00000270: 2d92 a8be 7ca1 c1be 56aa 87be bdfc b8be
00000280: fc00 2a3f aa87 be3e 265d 693f 7662 973e
00000290: c097 7a3e ce3c 28be 24d0 e13c 28d4 6c3d
000002a0: bf29 f8be af26 263f 4a86 a1be 5898 513f
000002b0: fc78 33be e455 89be 17e5 b1bd 26ec 613e
000002c0: 4e25 243f 6efa b63d ea86 893e 8ce4 fc3d
000002d0: e1e2 2f3e 3824 1ebe b8b1 1cbf 46a5 38bf
000002e0: 1a9a 8d3e 54d8 3b3f 40ee 2c3e eeff b0be
000002f0: bb16 4e3e ff29 49bf d724 8dbe 2ad7 153e
00000300: c073 7ebd c6ee ac3e bc33 53be 9e0b 81be
00000310: 3f70 bbbc 628d 14bd 4476 933e 4e67 603e
00000320: 5a2f 8e3e 7ff2 a7bd bfd0 b23d ead1 a2be
00000330: 0482 2a3e 9215 a83e 616a 55be d075 e0bd
00000340: 19f6 72be 38f1 bc3d fb96 c43d 9f90 9fbe
00000350: 1cbc 7f3e 20a4 f23c 14cd b0bd 1d81 443e
00000360: 8903 38be 9470 86bd d8eb ac3d b443 223e
00000370: 0a3d 28be 7d93 03be 2ea7 f43d f051 82bd
00000380: 9451 85bd ee59 54be bcc9 aebd 3c9d 7e3e
00000390: d4e6 ef3d d907 a1be f0d0 163e a0de 93be
000003a0: d89c 14bd 5cd8 e13d c07b 96be 3045 8cbe
000003b0: d8ea 81bd 8638 163e 90bf 473d 905e f53c
000003c0: 3cfb 803e 3c19 9fbd 4a2c debd 6286 a9be
000003d0: 2a13 88be 2c5b 8bbd f83c 4ebe 7fbf a3be
000003e0: 50ff 51be cead 88be 29ca a9be 9c7f f03d
000003f0: 6e01 b6be 0634 fc3e 3cc4 a33e 9115 10bd

arith.constant5 f4 [14, 1, 4, 1]
-0.36210147 -0.25160626 0.30997658 0.32970846 -0.70201415 0.7743046 0.27413127 0.098144464
0.16791348 -0.051590223 -0.15053488 -0.2974395 -0.82919395 0.23205309 -0.0062128934 0.13337673
-0.24760807 -0.14358746 0.13080394 -0.30536145 -0.30420324 -0.12579021 0.19186454 0.40028825
-0.45792636 -0.43958285 0.49716857 0.1622944 -0.11209619 0.48187196 0.2682576 -0.33906564
-0.18429631 -0.5819966 0.005283512 0.3785763 -0.014125188 0.20014742 -0.24211007 -0.324007
-0.0541943 0.04111311 -0.09492773 -0.10812095 -0.17433886 -0.21318275 -0.18861355 -0.28561214
-0.21785863 0.12740096 0.5364535 0.005327498 -0.29582417 -0.04148662 -0.03364399 -0.2409088
00000000: 5d65 b9be 89d2 80be 40b5 9e3e 8ccf a83e
00000010: 33b7 33bf d438 463f ef5a 8c3e f7ff c83d
00000020: 83f1 2b3e 4550 53bd d125 1abe fd49 98be
00000030: 0e46 54bf 539f 6d3e 8795 cbbb e993 083e
00000040: f88c 7dbe 9708 13be 78f1 053e 5658 9cbe
00000050: 87c0 9bbe 26cf 00be 2378 443e 95f2 cc3e
00000060: 5375 eabe 0111 e1be e18c fe3e 8130 263e
00000070: b092 e5bd ecb7 f63e 0f59 893e 039a adbe
00000080: 2cb8 3cbe bbfd 14bf 5021 ad3b c1d4 c13e
00000090: 556d 67bc 72f3 4c3e b4eb 77be 3fe4 a5be
000000a0: d8fa 5dbd 3866 283d 7869 c2bd 846e ddbd
000000b0: e385 32be 944c 5abe e923 41be c13b 92be
000000c0: 5516 5fbe 6675 023e 0455 093f 4b92 ae3b
000000d0: 4476 97be e0ed 29bd 48ce 09bd ccb0 76be

arith.constant6 f4 [5, 24]
0.63060504 -0.9225601 -0.29728016 1.0537763 0.614534 -0.17451976 0.46568006 -0.3122263
-0.090197474 -0.32030526 0.5303807 -0.105282456 -0.07061003 -0.6027179 -0.40753335 0.19182563
0.09230069 0.102015026 0.5103953 -0.3839184 0.41059953 0.47218525 0.9738608 -0.25141466
0.16583484 0.17190266 -0.82692885 -0.069048755 0.64400846 0.72473013 0.2559924 -0.25674826
0.3107108 -0.064141005 -0.47012368 0.52774507 0.74227804 0.66270024 -0.43051958 0.7915778
0.7397527 0.3968254 0.31690213 0.33683792 -0.23735133 0.05247962 -0.6582417 -0.23721616
-0.3410919 -0.0023782277 0.18649258 -1.0049965 -0.94563806 -0.71804094 -0.80254185 -0.3532168
-0.20143732 -0.05147358 -0.6629749 0.62491244 -0.53807247 0.10989019 0.53455865 -1.4269047
-0.4115676 0.28501934 -0.9572239 0.17136757 0.3763671 -0.41289067 -0.97333586 0.1865021
-1.4888515 -0.02773689 0.8285072 -0.4277804 -0.51251024 -0.71673334 -1.5176328 -0.25160795
0.38517123 -1.5829711 -1.2148892 -1.4960586 -1.502845 0.7795727 0.20023285 0.2433667
-1.1643318 0.698305 -1.082867 -0.3315388 -0.26774812 -0.95820373 -0.61364484 -1.1438694
-0.029186083 -0.44540173 0.077561535 -1.2315071 -0.52515143 -1.0022061 0.25444454 0.19520105
0.28023767 0.8041039 -1.401821 0.8320434 -0.13550766 -1.4734261 0.051089887 -1.2771597
0.26059946 0.015668156 0.11067529 0.32884672 0.20255 0.7504621 -0.9169397 0.7734747
00000000: 556f 213f e62c 6cbf 1b35 98be 24e2 863f
00000010: 1a52 1d3f 4fb5 32be 9e6d ee3e 20dc 9fbe
00000020: 74b9 b8bd 0dff a3be 08c7 073f 549e d7bd
00000030: fe9b 90bd b84b 1abf 36a8 d0be f06d 443e
00000040: 2508 bd3d 41ed d03d 44a9 023f f490 c4be
00000050: 1a3a d23e 44c2 f13e f14e 793f 6cb9 80be
00000060: 9cd0 293e 4007 303e 9cb1 53bf 6f69 8dbd
00000070: bddd 243f ea87 393f 7011 833e 8274 83be
00000080: 7c15 9f3e 5c5c 83bd 0db4 f0be 4d1a 073f
00000090: ef05 3e3f b9a6 293f 106d dcbe d8a4 4a3f
000000a0: 6f60 3d3f b32c cb3e ff40 a23e 0576 ac3e
000000b0: 3a0c 73be dff4 563d 8782 28bf cbe8 72be
000000c0: 99a3 aebe 0adc 1bbb e9f7 3e3e baa3 80bf
000000d0: 5615 72bf 88d1 37bf 6273 4dbf d5d8 b4be
000000e0: 9645 4ebe f6d5 52bd b9b8 29bf 43fa 1f3f
000000f0: 1ebf 09bf 1c0e e13d d6d8 083f d0a4 b6bf
00000100: fdb8 d2be 0eee 913e a00c 75bf fb7a 2f3e
00000110: 30b3 c03e 6866 d3be 8a2c 79bf 68fa 3e3e
00000120: b092 bebf 7938 e3bc 0c19 543f 0806 dbbe
00000130: df33 03bf d67b 37bf cb41 c2bf c2d2 80be
00000140: 2a35 c53e cc9e cabf 7d81 9bbf d97e bfbf
00000150: 3a5d c0bf 1492 473f d709 4d3e 1f35 793e
00000160: d308 95bf 1ec4 323f 639b 8abf 74bf a9be
00000170: 4816 89be d74c 75bf d417 1dbf 506a 92bf
00000180: a717 efbc b20b e4be 95d8 9e3d 06a2 9dbf
00000190: 5370 06bf 4a48 80bf 8e46 823e c9e2 473e
000001a0: 507b 8f3e c1d9 4d3f df6e b3bf cc00 553f
000001b0: 85c2 0abe 3a99 bcbf a143 513d f879 a3bf
000001c0: 4b6d 853e 815a 803c baa9 e23d 995e a83e
000001d0: 4469 4f3e 491e 403f 8fbc 6abf 7002 463f

arith.constant7 f4 [5]
-0.08448362 -0.17995742 0.14306752 0.16603969 0.00012630621
00000000: c005 adbd c246 38be 4b80 123e 4f06 2a3e
00000010: 1171 0439
