machine/gesture_model.tflite (tflite, 7752 bytes, 6 tensors)

arith.constant f4 [16]
00000000: 0dcb 80bc 0000 0000 95a0 88be d85e 01bd
00000010: 0000 0000 5d61 853d 0000 0000 4df1 463e
00000020: 0000 0000 7460 1cbe 9e59 303e 0ca5 81bc
00000030: 5987 8fbd a7fd 893e 6424 aa3d 1fc5 1c3e
-0.015721822 0.0 -0.26685014 -0.03158459 0.0 0.06512711 0.0 0.19427986
0.0 -0.15271169 0.17221686 -0.01582577 -0.070082374 0.26951334 0.08307722 0.1530957

arith.constant1 f4 [16]
00000000: 056a 04be da00 0d3e 0000 0000 24dc 233e
00000010: 97a5 8bbe fc66 953e 7e38 653e eb8c 273c
00000020: efa3 b13e fa25 c03e dbe8 debc 3427 85be
00000030: 5812 8e3e 0000 0000 464c b53e 0000 0000
-0.12931068 0.13769856 0.0 0.16001946 -0.27274773 0.29180133 0.22384831 0.010226469
0.34695384 0.37528974 -0.027210644 -0.26006472 0.2774837 0.0 0.35409755 0.0

arith.constant4 f4 [16, 1, 2, 16]
00000000: 2ac1 83bd 5e2f 5cbe 4cec 21be b7ea ed3d
00000010: b81f 41be 9e99 613e 979c b7bd 640a 2bbe
00000020: 274a 713b 9cc4 33be 2e1b b1bd 8b2a 83be
00000030: 0c36 543e d892 c7bd 28e3 a63d 2dfa 97be
00000040: 6c9c 38bd 0c07 a6bd b0d7 9e3c 7589 703d
00000050: 78e7 6d3e 25cb f3bd 9009 a6bc ec14 a3be
00000060: 42ce 1bbe 00f3 6bbe ac70 b8bd 08d5 bbbc
00000070: 700a 87be 3ab4 493e bec6 773e 4425 09be
00000080: 9e46 1ebe 6485 f63d e0f8 1c3e 70db d5bd
00000090: 8c81 453e 70b9 db3d e2c0 353e 0011 c1bd
000000a0: 9803 f53d 40ae 45be 82c2 4ebe c869 1dbd
000000b0: 44f2 86bd 723b 763e a8d7 52bd d01a 44be
000000c0: 2358 933e 8a1c 69be ae03 733e 9eff f9bd
000000d0: ac83 9f3d b157 0fbe a6c3 85be e4d3 aabd
000000e0: e7ce 55be 8c1f 80bd b726 853e da5d d8bd
000000f0: 5cb2 d8bd 2e02 0a3e c0cf cfbb 40dc 34bc
00000100: 310c dc3c 0b0f 1d40 44bb f9bd c8df a7bd
00000110: 15ec 3b3e 6e7c 923f 5768 36bf d057 0fbf
00000120: e8bc b13f 8399 86be d7a5 15be ac19 45be
00000130: baeb 933f e702 7fbe f016 6240 60b5 24bd
00000140: b2e7 7f3f 1cea e43f 00b6 6fbb 609a 063f
00000150: 6481 b5be 8e6d fb3e 0968 963d f22b 0fbe
00000160: 67f5 713f ca37 2b3e 3877 38be ea5c 03bf
00000170: b250 583f 1e60 7b3e eacc b93e b41d 80be
00000180: 288a 2d3e d0ef 08be 68c8 73bd cecc 163e
00000190: fa1d 7abd 173d aabe 52fc d13d 925e 70be
000001a0: cae4 60bd 4025 263d 5067 203d 7b77 cfbd
000001b0: f0bc cebc d98a 95be c4a8 6cbd 0cb3 d43d
000001c0: 9a00 9abe 67fb 743e 6c22 903d 4338 9bbd
000001d0: 95c7 70be 77f7 cebb d826 9fbd 9e22 ac3d
000001e0: e8da 8e3e 74c2 123d 14a7 043e ffde e03c
000001f0: 01a3 acbe 00b7 adbb c87a d73d d7a3 17be
00000200: ae1a 50be b41c 96bd 0e9a 96bd a039 40bc
00000210: e647 78be 884f 5e3d a62c 89bd fc85 ce3d
00000220: 21c7 1bbe 4c20 36be fdb5 873e 40f2 d93d
00000230: 82ec afbd c728 3ebe c24f 4f3e 37ff 943e
00000240: 605b ff3c 881b 723d 309f 89bc 3c27 4cbe
00000250: 5c51 bc3d b0e5 093e 36dd 493e 521c 8cbe
00000260: 6afd 353e 0ed9 39be 14cd aa3d 2417 9cbe
00000270: 3065 0fbd 2d6d 933e ea40 4ebe 3682 5c3e
00000280: bc74 03be f273 133f 4275 773e 7ab7 eb3c
00000290: 9ea7 ffbe 9e8b 893f c36f 833e 6fa6 56be
000002a0: 4932 1b3f e629 a2be 755e 37be a7b4 a5bf
000002b0: 55c3 9c3e 4553 20be d5b3 0340 c58c 2fbe
000002c0: aa60 1e3d 1a6f e63f d03a 85be 53d3 cc3e
000002d0: b82f 4fbf 4b9a 3d3f 981c 72be 361d 22bf
000002e0: 346c 393f 1a5c 193d 1365 7dbe 0cc5 61bf
000002f0: 55cb 6d3f 5e0c 9bbe 0b0a 23bf 94d7 9bbe
00000300: cae8 7bbe 1742 803e 385e 4ebd 9807 2fbd
00000310: cc9a b33d 9116 9abe 405e 78be 3df1 95be
00000320: 8911 3bbe 88d7 443d 3861 22bd 0721 3cbe
00000330: b4c0 8abe a099 273c cabb 2d3e ee5d 5b3e
00000340: 28e2 003d f082 d4bd d4ad 15be f89c 4ebd
00000350: 8efe 793e e428 9bbe 2137 89be 5a3b 77be
00000360: aaba 793e 4c81 8f3d 5ed2 29be 86b7 163e
00000370: 2f4f 53be 4bef 8dbe 04ef 3a3e 82b5 663e
00000380: 120d c4be 676c e2bf 0030 f1bc 1350 a3bc
00000390: 0481 2a3f e99d 26bf e958 353e eb1d 1d3f
000003a0: 4e59 94be 63a4 dc3e 678d 7a3e 4343 81bc
000003b0: f1ce 0bbf 1cda 983d e576 75c0 d2f6 763e
000003c0: f856 8e3f ab9d 35bf 01b0 37be e4e1 ff3e
000003d0: dce4 e03c 10e2 9cbe 0ac7 583e ee18 923e
000003e0: 1ee5 be3d 5d42 343f 54a4 bf3d f5e6 e6be
000003f0: 3f4e ac3e 60ba 85be fb73 0bbf dcbc 40be
-0.064333275 -0.21502444 -0.15812796 0.11617034 -0.18859756 0.22031257 -0.08965414 -0.16703182
0.003681788 -0.1755547 -0.08647762 -0.25618395 0.20723742 -0.09744805 0.08148795 -0.29683056
-0.04507105 -0.08106813 0.019389957 0.05872484 0.2323283 -0.11903981 -0.020268232 -0.318519
-0.152154 -0.23041916 -0.090058655 -0.02292873 -0.2637515 0.19697657 0.24196908 -0.13393122
-0.15456626 0.12037161 0.15329313 -0.10442245 0.192877 0.10728729 0.1774936 -0.094270706
0.11963576 -0.19304752 -0.20191386 -0.03843096 -0.06589177 0.24046114 -0.051475197 -0.19150853
0.2877818 -0.22764793 0.23731872 -0.12206958 0.07788786 -0.13998295 -0.2612583 -0.08341196
-0.20879708 -0.06256017 0.260061 -0.10564776 -0.10580894 0.13477394 -0.0063419044 -0.01103884
0.026861282 2.4540431 -0.12193921 -0.0819698 0.18351777 1.1444223 -0.7125296 -0.55993366
1.3885775 -0.26288995 -0.14614044 -0.19248074 1.1556313 -0.24903451 3.53265 -0.040212035
0.99962914 1.7883945 -0.0036576986 0.5257931 -0.3545028 0.4910702 0.07344062 -0.13981608
0.9451508 0.167205 -0.18014228 -0.5131365 0.8449813 0.24548385 0.3628915 -0.25022662
0.16947234 -0.13372731 -0.059517294 0.14726564 -0.061063744 -0.33249733 0.102532044 -0.23473576
-0.05490569 0.040562868 0.039161026 -0.10130211 -0.025236577 -0.29207495 -0.057778135 0.10385713
-0.30078584 0.23924027 0.070378155 -0.075790904 -0.23513635 -0.006316121 -0.07771081 0.0840504
0.27901387 0.035829976 0.1295436 0.027450083 -0.33718112 -0.0053013563 0.105214655 -0.14808594
-0.20322677 -0.073296934 -0.07353602 -0.011732489 -0.24246177 0.054275066 -0.06697969 0.10084149
-0.1521268 -0.17785758 0.26506034 0.10641909 -0.08590032 -0.18570243 0.20245269 0.29100963
0.0311715 0.059108287 -0.01679954 -0.19936842 0.091952056 0.13466525 0.19713292 -0.27365357
0.17772451 -0.18149206 0.08339897 -0.30486405 -0.03500861 0.28794232 -0.2014195 0.21534047
-0.128375 0.57598794 0.24165824 0.028774012 -0.4993257 1.0745733 0.25671205 -0.20961927
0.60623604 -0.3167259 -0.17907126 -1.2945756 0.30617777 -0.15656765 2.057851 -0.17143543
0.038666405 1.8002656 -0.26021433 0.40004978 -0.8093219 0.7406356 -0.2364372 -0.6332582
0.7243073 0.03744135 -0.24745588 -0.88191295 0.92888385 -0.30282873 -0.636872 -0.3043791
-0.2460052 0.25050423 -0.050382823 -0.04273185 0.087697595 -0.30095342 -0.24254704 -0.29285613
-0.18268408 0.04805711 -0.039643496 -0.18371974 -0.27100146 0.010229498 0.16966167 0.2142255
0.03146568 -0.10376537 -0.14617091 -0.050442666 0.24413511 -0.30304635 -0.26799873 -0.24143735
0.24387613 0.07007083 -0.16584155 0.14718446 -0.20635675 -0.2772163 0.1825524 0.22530177
-0.38291222 -1.7689332 -0.029441833 -0.019935643 0.6660311 -0.650847 0.17709698 0.61373776
-0.28974384 0.43094167 0.24468003 -0.015779143 -0.5461264 0.07463476 -3.8353817 0.24117592
1.1120291 -0.7094371 -0.17938234 0.49977028 0.027452879 -0.30641222 0.21169677 0.28534645
0.093210444 0.7041376 0.09357515 -0.4509808 0.33653447 -0.26118755 -0.5447385 -0.18822044

arith.constant5 f4 [16, 1, 4, 1]
00000000: 406b 8bbe 6a94 623f de7b 673d 012e 8cbe
00000010: be09 7cbf 7040 023e 347e 723f 3a76 1abe
00000020: c036 16bc 8025 853d 3cde 4bbd 2252 63be
00000030: ed6c 47bf ca3b 013f 3b49 d33e 0dd4 e63e
00000040: 7868 4f3f 1ebd d3bd e0f5 513d b71a 67be
00000050: 8fd0 36bf ab67 50be 8072 c73e 1925 d63e
00000060: a444 2c3f bbe8 d4be 32e9 52be 76cc 913e
00000070: 43fc 873f 19db b1bd 2692 033e c4c4 ab3d
00000080: 02fb 81bf 649a 2f3c a052 283f cb05 453e
00000090: 5611 0f3e 9154 3c3f cfc6 463f 630a 1a3e
000000a0: a97c b8bd ef60 40bd c5de 563e efb5 97be
000000b0: 8f65 7a3f 0ec4 893e bc86 babe 1c0c d3be
000000c0: b8bb 7fbf 6e26 3f3e 66a1 603f 7432 bebb
000000d0: bc5b 1dbe c3a8 8abe 88ea f3bd 42d9 6bbe
000000e0: 8307 8a3e 7acc babf 5e42 1f3e c0d9 b63d
000000f0: 942b 54bd 885f 94bd e095 62bc 9958 1dbe
-0.27230263 0.8850771 0.056514613 -0.27378848 -0.98452365 0.12719893 0.9472382 -0.15084162
-0.009168327 0.06501293 -0.049772486 -0.221993 -0.7790058 0.50481856 0.41266808 0.45083657
0.8101878 -0.103388056 0.051259875 -0.22568785 -0.71411985 -0.20352046 0.38954544 0.41825178
0.6729224 -0.4158381 -0.2059677 0.28476304 1.0623859 -0.08684368 0.1284872 0.083871394
-1.0154727 0.010717962 0.65751076 0.19240491 0.13971457 0.7356654 0.7764711 0.15043025
-0.09008152 -0.046967443 0.20983417 -0.29630992 0.97811216 0.2690739 -0.3643092 -0.41220176
-0.9989581 0.18667004 0.87746274 -0.0058043543 -0.15367025 -0.2708188 -0.11909968 -0.23032096
0.26958856 -1.4593651 0.15552661 0.08928251 -0.05179937 -0.07244784 -0.013829678 -0.15365829

arith.constant6 f4 [5, 32]
00000000: b99c afbe 789e 16be 7bc2 783d 5190 6dbe
00000010: 1042 2a3d 2f21 0d40 80ce f43b 90ca 4ebe
00000020: e88b adbe e730 8c3f f733 e1bc ff58 1b3e
00000030: 9a06 07be 95b6 c7bf a710 84bf 05e1 2f3a
00000040: 91e2 8b3e 7e18 c6be 5949 b8be 8469 443b
00000050: 78ef bfbd bcec 5d3f de6a bebe 061a c83e
00000060: 73d2 cbbe ecbc dd3c c845 883f 549b 8d3d
00000070: 226f 3fbe a347 abbf 90ed d33e 1df7 103f
00000080: fa77 9e3e f04b 43bd 5cd5 6e3f 9457 7f3e
00000090: 7c5b 9bbe dc55 d9bf 85d0 74be eca3 29bf
000000a0: 2477 a9be 4a74 d93e 314f c3bf 3094 ac3e
000000b0: 38b2 073e 4acb 6a3f f3d3 9c3f 0000 13c0
000000c0: 77a4 f6bd 416a aebe 38db 87bf fc9d 9d3e
000000d0: c86b 5e3d d943 31bf ac2a 653e a703 6f3e
000000e0: 60de f33c 5bac 873e e496 45bf 215f c53d
000000f0: d6ef 85be ec41 15be fead d0bd 0f29 bfbf
00000100: 0d79 cdbd 641e 2f3e 1532 383e 5132 c53e
00000110: f807 323d 419f 5cc0 28fc b4be 149a a33d
00000120: 585c c93e 8e88 22bf dbe4 4f3f 0a24 723d
00000130: ce81 ae3e b4fc ecbc b357 32c0 a904 493f
00000140: 121e 843e 4052 d73d d192 b33f 65c7 55bd
00000150: 6011 fa3d 449d 56c0 fc6a 093e 8f4f 87bd
00000160: 552c 7fbe d030 13bf 4fda 1abd a10e 4cbe
00000170: 1bcd 9e3d c7c5 033f f357 26c0 8bf5 20bf
00000180: d5e7 9b3e c995 7dbe 728e 03bf 036d b63e
00000190: 9ec8 c93e a661 b9bd d07a b13e 5f76 d8be
000001a0: b85d e1bd 6baa 7dbf a589 433f 24ce 3cbe
000001b0: 960c 333e 6c07 113f 2529 8ebf e8d4 233f
000001c0: 1892 eebd 62fb ca3e 98c5 ec3e 7c33 2c3e
000001d0: 0aae cc3e 759c eebd 9c74 383e dcc3 cb3d
000001e0: 78e3 f53d ced0 1dc0 1306 463d 9584 89be
000001f0: c1cd c53e 6496 413f 8fae 87bf 1880 bf3e
00000200: 548e 4abe 02ca 34be 461d f6bf 5f8a 3cbe
00000210: 7ceb 89be 9e6d ffbd 4ed3 b13e 508f 613f
00000220: 07a9 8fbe 4c18 a3bf 7390 463c 2ff8 9c3e
00000230: 14ed 373d f310 873e c1dd bd3f 1c18 a8be
00000240: 64d6 b4bd 0d05 4dbe 1ee6 5cbf f88d 2e3e
00000250: f806 24bd d050 b23e 9c4c 533e f63f 3a3f
00000260: 3807 0ebd 3ee8 c63e 3909 c83c 7e36 963a
00000270: 509e 3b3e ca54 4d3f 58e8 a33f 3464 bd3e
-0.34299257 -0.14708889 0.060732346 -0.23199584 0.04156691 2.2051504 0.007470906 -0.20194459
-0.33895802 1.0952424 -0.0274906 0.15170668 -0.13186112 -1.5602595 -1.0317582 0.0006709251
0.27321294 -0.3869056 -0.3599346 0.0029970119 -0.09371847 0.86689353 -0.37190908 0.39082354
-0.39808998 0.027067624 1.0646296 0.06914392 -0.18694738 -1.3381237 0.41392183 0.56627065
0.3095091 -0.04767984 0.9329431 0.24935752 -0.30343235 -1.6979327 -0.23907669 -0.6626575
-0.3309871 0.42471534 -1.5258542 0.33706808 0.13251579 0.91716444 1.2252182 -2.296875
-0.12043088 -0.3406544 -1.0613775 0.30784595 0.054302007 -0.6924415 0.2237956 0.23341237
0.029769123 0.26498684 -0.77183366 0.09637285 -0.26159543 -0.14575928 -0.101894364 -1.4934405
-0.10032854 0.17101437 0.17987855 0.3851495 0.04346463 -3.44722 -0.3534863 0.079883724
0.39328265 -0.63489616 0.8120858 0.0591164 0.34083408 -0.028929092 -2.7866027 0.78522736
0.25804192 0.10513735 1.402918 -0.05219211 0.12210345 -3.3533487 0.13419718 -0.066069715
-0.24919255 -0.57496357 -0.03780585 -0.19927455 0.077539645 0.5147366 -2.599118 -0.6287467
0.3045031 -0.2476417 -0.5138923 0.35630044 0.3941087 -0.09051828 0.3466401 -0.4227781
-0.110042036 -0.9908816 0.76381904 -0.18438011 0.1748527 0.5665195 -1.1106306 0.63996744
-0.11648959 0.39644915 0.46244502 0.16816515 0.3997653 -0.116509356 0.18013233 0.099494666
0.12006277 -2.4658694 0.048345637 -0.26858965 0.3863354 0.756201 -1.0600146 0.37402415
-0.19780856 -0.17655185 -1.9227684 -0.1841216 -0.26937473 -0.1247208 0.34731525 0.881093
-0.28058645 -1.274179 0.0121194 0.306581 0.04490383 0.2638012 1.4833299 -0.32830894
-0.08829954 -0.20021458 -0.8628863 0.17046344 -0.04004571 0.3482728 0.20634693 0.72753847
-0.034674853 0.38849062 0.02441846 0.0011460332 0.1832211 0.802075 1.2805281 0.3699051

arith.constant7 f4 [5]
00000000: 0b94 0cbd b0f3 a3bd 3bac 1bbd 5d21 c5bc
00000010: 44ca 193e
-0.034320872 -0.08005464 -0.03800605 -0.02406376 0.15018564
