machine/gesture_model.tflite (tflite, 6208 bytes, 6 tensors)

arith.constant f4 [8]
00000000: e489 aebd c12f 0b3e 63a4 fbbc 91a1 05be
00000010: 0000 0000 cf12 1d3c 8717 37bd 2a91 913e
-0.08522394 0.13592435 -0.030718034 -0.13049914 0.0 0.009587004 -0.04470017 0.28431064

arith.constant1 f4 [14]
00000000: 0000 0000 307e 5ebe 0000 0000 2343 15be
00000010: 0000 0000 da86 693e 0106 c93d 582b 8dbc
00000020: 0000 0000 7d5e bc3e 0f13 893e a171 00be
00000030: e9b4 2bbe 0000 0000
0.0 -0.21727824 0.0 -0.14576392 0.0 0.22805348 0.09815598 -0.017232582
0.0 0.3679084 0.26772353 -0.12543346 -0.1676823 0.0

arith.constant4 f4 [8, 1, 2, 14]
00000000: 08a7 b9be 1208 ec3e a92f 953e 337f 5c3f
00000010: 49b6 41be 0b80 a63d 388c 1b40 63c7 d73d
00000020: 17ac 963e 9149 abbf d141 b7bd 39b1 3c3e
00000030: b14f b7be b87a 113d 39a3 883e 0f14 b13f
00000040: 82f4 7e3e 51d9 d5bc 34b3 58be a80e 0bbe
00000050: ded6 4940 70a5 49bd 88b2 5f3d e042 523f
00000060: a7e5 e2bb 860a 793f 4d22 1a3f 97b2 14be
00000070: 80cd c9bc 8ff4 13c0 2a99 63be 54af cfbe
00000080: 2af9 1d3e 37c0 0c3f 40cc 793f fa4a 6fbe
00000090: 8048 50bb 3368 a93f 1744 2e3e f3df febf
000000a0: 72b6 e5bf 98c4 70be a3e5 4bbe c152 6dbf
000000b0: a04d 823d 77cf 123f 1134 12be c30c 173e
000000c0: 725b 73bf e25b 373d 9bf2 ba3e 54b4 0bbe
000000d0: 1ae0 a73e 05c0 ccbd d4ac 3a3e dec6 8ebe
000000e0: 11be a1be 9acf 373e d08d abbe ce3b 75be
000000f0: e11f b6be 1ad4 8ebe d6e5 9cbe d552 9b3e
00000100: 6c29 ac3d 2fab 133e 3e0e 77bd 99f3 5c3e
00000110: b09d 16bc 07a5 9e3e 4279 3e3e 619d d7bd
00000120: a4b5 053e b597 8ebe a7ad 893e fed4 d6bb
00000130: 3fca 453e bb50 91be 6125 5bbe af66 f9bc
00000140: d27c b8bc ea7e d4bc 09cf 6c3e 987c babd
00000150: d539 a53e f6b9 b73e 690c bbbe 2bf2 d93e
00000160: 85e1 9b3e dfd1 52bf 0446 c8be b960 4f3e
00000170: 3b36 53be 1a9c 30c0 4be1 c9bd d93a 133f
00000180: fa02 f83d 1502 a23e 5077 e5bd 8e19 4c3f
00000190: 54fc 9a3d eda4 b1be 4c1c cebd 0b30 3abe
000001a0: b56c 06c0 c6fe 05bc f28a 153e 6eeb a1bf
000001b0: 6b63 fc3d b9a1 a03f 15ad 7a3f 7c43 bcbd
000001c0: 01e4 803e ace4 c2bd ecff b8be a62b a2be
000001d0: bb0f a13e 782f 4fbe ae73 0bbe e2d4 96be
000001e0: 3ab8 383e 028f 583e b81a ccbd a2f1 26be
000001f0: 5002 a03c cadf 513e af0b b8be d473 58be
00000200: f6f1 133e f72c 9d3e 964f 673e 380f 4abd
00000210: ffed afbe f4e3 f83d cc05 8ebd 4bcd 42be
00000220: 2f67 83be 0137 873e d060 22be 1ade 5b3e
00000230: 479b 8f3e 03f2 2e3e f03d 43bd 356e e4be
00000240: b8d9 8e3d 1611 a5bc 511f 3ec0 9b43 673e
00000250: 422d 353e ad72 babf 3709 b53e b32f 953e
00000260: 884e 643d 0875 1ebe b309 983e 976f 973e
00000270: c30b bc3e c8cd 173e 1b24 61be b15c 89be
00000280: f230 e8bf 9b5a 3cbe 736c a83e dc91 a4be
00000290: 2acf 1e3e 080b ac3d fc9f 523e 800f 3d3d
000002a0: a6ae 2d3e 2670 36be b0ac c63d 3f7d 583d
000002b0: 7b78 b43e dc26 1ebd 85fa 36be 9fd5 c2be
000002c0: 4152 ae3e 348c 87bd 93e3 9e3e 4336 42be
000002d0: a173 8cbe 4a9b 573e a0ff 573d 7d56 763e
000002e0: 63e0 9c3e f8aa cf3d 4abb 1b3e fa80 283e
000002f0: 7486 543d 411a 28be 70c3 97be 978e 5fbe
00000300: f412 cebe 78a6 7cbe 47a5 bdbe 4507 0fbe
00000310: c0be ad3c 27f8 723e 89f1 03be 80ea 953d
00000320: 00ae 8abd 6670 943e 301f 92be 0d67 2e3e
00000330: a59a 28be c6ac 993f 426e 793f 33ab b73f
00000340: 28bf bf3f 9a73 9bbe 1c24 b73d b85a 2abf
00000350: 4a60 72be ffc0 803f ce2e 12be 0475 ec3e
00000360: a75e 95bf 878b b8be c32b 0ebe 9973 30bf
00000370: 220f 033f 2fef bbbe 77e3 4abf ee92 643e
-0.36260247 0.46099907 0.29137924 0.8613159 -0.18917193 0.08129891 2.4304333 0.10536077
0.2942817 -1.3381826 -0.089481 0.1842698 -0.35802987 0.035517424 0.2668703 1.3834246
0.2489796 -0.026104601 -0.2116211 -0.1357981 3.1537395 -0.04923004 0.05461362 0.82133293
-0.0069243493 0.9728168 0.6020859 -0.14521252 -0.024634123 -2.3118017 -0.22226396 -0.40563452
0.1542708 0.54980797 0.97577286 -0.23368445 -0.0031781495 1.3234924 0.17018162 -1.9912094
-1.7946303 -0.23512495 -0.19911818 -0.927044 0.06362462 0.57347816 -0.14277674 0.14750962
-0.9506141 0.04476536 0.36513218 -0.13643008 0.32788163 -0.09997562 0.18229991 -0.278861
-0.31590322 0.17950287 -0.33506632 -0.23948595 -0.35571197 -0.27896196 -0.306441 0.30336633
0.08406338 0.1442077 -0.060316317 0.215773 -0.009192869 0.3098528 0.18600944 -0.105280645
0.13057572 -0.27850118 0.268903 -0.0065561524 0.19315432 -0.28381905 -0.21400978 -0.030444471
-0.022520456 -0.025939424 0.23125853 -0.091057956 0.32270685 0.35884064 -0.36532906 0.42567572
0.30445495 -0.8235149 -0.39115918 0.2025174 -0.20626156 -2.7595277 -0.09857424 0.5751167
0.12109943 0.31642213 -0.11204398 0.79726493 0.07567659 -0.3469614 -0.10063991 -0.1818239
-2.100385 -0.0081784185 0.14603785 -1.2649972 0.1232365 1.2549354 0.9792035 -0.09192559
0.25173953 -0.09516272 -0.36132753 -0.31673926 0.31457314 -0.20232952 -0.13618347 -0.29459292
0.18039027 0.21148303 -0.09966034 -0.16303113 0.019532353 0.20495525 -0.35946414 -0.21137935
0.1444777 0.30698368 0.22588953 -0.04933092 -0.34361264 0.121528536 -0.069346994 -0.19023626
-0.2566466 0.26409152 -0.15857244 0.21471444 0.28048155 0.17084508 -0.04766649 -0.4461533
0.0697512 -0.020149749 -2.9706614 0.22584383 0.17693046 -1.4566246 0.35358593 0.29137954
0.055738956 -0.15474331 0.296949 0.29577324 0.36727723 0.14824593 -0.2198643 -0.2682853
-1.8139937 -0.18393938 0.3289524 -0.32142532 0.15508714 0.084005415 0.20568842 0.04615736
0.16961154 -0.17816219 0.09700906 0.05285382 0.3524817 -0.038611278 -0.17869003 -0.38053605
0.3404713 -0.066185385 0.31033 -0.18966012 -0.27431968 0.21055332 0.052734017 0.2405643
0.30639943 0.101400316 0.15208164 0.1645545 0.051886037 -0.16416265 -0.29641294 -0.21831737
-0.40248835 -0.24672878 -0.3704016 -0.13967617 0.02120912 0.23727475 -0.12885107 0.07320118
-0.06771469 0.28992003 -0.2853942 0.17031498 -0.16465242 1.2005851 0.97433865 1.4349121
1.4980211 -0.30361634 0.08942434 -0.66544676 -0.23669544 1.0058898 -0.14275667 0.46183026
-1.1669511 -0.3604395 -0.13883881 -0.6892639 0.51194966 -0.3670592 -0.79253334 0.22321674

arith.constant5 f4 [14, 1, 4, 1]
00000000: 089c 63be ccbc 9fbe 4044 d3bc 2d57 00be
00000010: bb49 1f3f 3006 433d 06f6 ccbe 643b 923d
00000020: 3ab8 efbd 90a0 cc3c 5856 28bd 08da 62bd
00000030: ec5a 0bbd 254f 963f 2478 643f fd3d d7bd
00000040: 10d0 7cbe 1045 bbbc 12c0 5e3e 1ca1 94be
00000050: 4fdf 1dbf c4c1 08bd 9c8f d53e dc87 ec3e
00000060: 454c 97bf 841f 023f c165 e83e c583 14bb
00000070: 00b5 143d 75fe f1bc c742 c9bd 541e cbbc
00000080: a026 1cbc c044 bb3b 62ae 96be c02e e4bb
00000090: a543 71bf aa87 babd aadf 1a3e 3c36 073f
000000a0: 23cb c13e 2672 bd3e c99a 313f 4caa ae3e
000000b0: 2545 713f c7be abbe 9318 eabd 09ea 88bc
000000c0: a63f ad3f 4ac6 20bf 1199 03be afc2 fb3d
000000d0: 10b2 94bc b6ae f7bd 6685 94be 6897 91be
-0.2222749 -0.31198728 -0.02578938 -0.12533255 0.6222188 0.047613323 -0.4003145 0.07140234
-0.1170506 0.024978906 -0.04109797 -0.055383712 -0.034022257 1.1742903 0.8924582 -0.1050987
-0.24688745 -0.02286008 0.21752957 -0.29029167 -0.61668867 -0.033387914 0.41711128 0.46197402
-1.1820151 0.5082934 0.45390132 -0.0022661549 0.036305428 -0.02954028 -0.0982719 -0.024794735
-0.009530693 0.0057149827 -0.2942992 -0.006963581 -0.9424384 -0.09107907 0.15124384 0.5281713
0.37850294 0.3700115 0.6937681 0.341143 0.9424613 -0.3354399 -0.114304684 -0.01671316
1.3535049 -0.62802565 -0.12851359 0.12292992 -0.018151313 -0.1209387 -0.29008025 -0.28435826

arith.constant6 f4 [5, 16]
00000000: 26f4 b93f cf0d 64bf c21c aabe 29d4 483f
00000010: a0e1 8a3e 3839 0140 4a48 04be 44b5 4ebf
00000020: 490f 70be e70a a03f 28e3 bbbe bc17 27bf
00000030: ac25 bcbe c1e6 8f3f 86e8 88be 240c 1b3f
00000040: be1b 603e 9651 eb3f c00b bdbd c5ff 2e3f
00000050: 68af 633e 91c0 05c0 26da d83e c631 3fbf
00000060: 9d23 0a3f f473 bbbf ce0a d23e 6e0c b63f
00000070: 2c0b 29be 7e6b 0cc0 c360 f8be f99f babc
00000080: 4d6f b1be c45c 1bc0 530a ff3e 0a60 58c0
00000090: 700b 4abe e329 d2bf 72db f93d 6580 233f
000000a0: 14dc 10be 0b27 cbbf 60d4 9ebe 83cd f7bf
000000b0: 309a 9cbd 632f 13c0 8522 aa3e b7c5 7d3d
000000c0: 1f80 7fbf 5521 c53f 2d41 1fbe a440 103f
000000d0: b05d ff3d 2d48 11c0 57e4 cdbe 0032 333f
000000e0: dd43 febf 4980 f43f 9451 393e 74c2 02c0
000000f0: 12d0 cabe 4633 fbbf 58f6 4a3e 119a 84be
00000100: 3f5f 0cc0 7e9a 47bf bd75 813e 8a03 41bf
00000110: 14b5 bebe 693d 1140 3f00 34be e65c f23e
00000120: 7fd9 3dbf c242 b23e d6f4 b13e a6ca 543f
00000130: a07f 1bbd 033d 0140 fdcb a13d 9d6f 713e
1.4527633 -0.8908357 -0.33225065 0.7844873 0.27125263 2.0191174 -0.12918201 -0.8074534
-0.23443331 1.2503327 -0.36696744 -0.6527059 -0.3674749 1.1242296 -0.267399 0.605654
0.21885583 1.8384273 -0.09230757 0.68359023 0.22234881 -2.0898783 0.42353934 -0.74685323
0.5396059 -1.4644761 0.41023868 1.4222543 -0.16508168 -2.1940608 -0.48511323 -0.022781359
-0.34655228 -2.427537 0.49812564 -3.3808618 -0.19730926 -1.6419033 0.12200059 0.6386779
-0.14146453 -1.587129 -0.31021404 -1.9359592 -0.076465964 -2.2997673 0.3322946 0.061956134
-0.9980487 1.5400797 -0.15552206 0.56348634 0.12469041 -2.2700303 -0.40213272 0.6999817
-1.986446 1.910165 0.18097526 -2.0431185 -0.3961187 -1.9625022 0.19820535 -0.25898793
-2.1933134 -0.7797011 0.2528514 -0.75396025 -0.37247527 2.2693732 -0.17578219 0.473365
-0.7416 0.34816557 0.34757107 0.83121717 -0.03796351 2.0193489 0.07900236 0.23577733

arith.constant7 f4 [5]
00000000: a837 3bbc 30df 0dbf 4ccc 953e 1f23 783e
00000010: fc84 4b3e
-0.011426844 -0.5541868 0.2925743 0.24232148 0.19874948
