machine/gesture_model.tflite (tflite, 18764 bytes, 6 tensors)

arith.constant f4 [24]
00000000: 8e2d 80bc 0000 0000 8e62 143e 4b6c 28bd
00000010: 7d27 9aba b31b 86bc 0000 0000 c9d1 c53d
00000020: 4c7a 033e a107 61bc c86a b5bc d27c 5abc
00000030: 30ca 18bc ff35 00bc 0000 0000 4321 a63d
00000040: f1cd fd3c 7f3c 4b3d 8791 673d c8ab 0fbd
00000050: e2f0 043e 372d 05bd 5fbc c13d 98d5 bfba
-0.015646722 0.0 0.1449072 -0.0411189 -0.0011761036 -0.01637063 0.0 0.09659154
0.12839621 -0.013734729 -0.022145644 -0.013335424 -0.009325549 -0.007825374 0.0 0.08111813
0.03098199 0.04961824 0.05653527 -0.035075933 0.12982515 -0.032513823 0.09459757 -0.00146358

arith.constant1 f4 [48]
00000000: d381 18bd 0000 0000 0000 0000 4f2e d8bd
00000010: 2660 49be d3d4 33be 1ba9 f93c e620 083e
00000020: f30f 07bd 0000 0000 0000 0000 8d64 18be
00000030: 0000 0000 0694 39bb 0937 8e3d 2545 683e
00000040: af0f 753e 5272 4fbe 0000 0000 0000 0000
00000050: 0000 0000 0000 0000 a6db b03d 79fe c13d
00000060: c688 1abe aef2 febd 0000 0000 2a8f 33bd
00000070: 0000 0000 7921 293d 0000 0000 713d 643d
00000080: 87dc 28bd 0b29 d1bb 0000 0000 ba46 213e
00000090: 0010 2f3e 6456 53be b53a a4bd 0000 0000
000000a0: 682f 28be d70b 43be dcd1 1a3e 0000 0000
000000b0: 6f21 09bc 6194 c4bb 0000 0000 e583 c63d
-0.037233185 0.0 0.0 -0.10555708 -0.19665584 -0.17561655 0.030476144 0.132938
-0.032974195 0.0 0.0 -0.14882107 0.0 -0.0028316989 0.06944091 0.22682627
0.23931764 -0.20258453 0.0 0.0 0.0 0.0 0.086356446 0.09472365
-0.15091237 -0.12448631 0.0 -0.043837704 0.0 0.041291688 0.0 0.055722658
-0.041225936 -0.0063830665 0.0 0.15749636 0.17095947 -0.20638424 -0.0801901 0.0
-0.16424334 -0.19047485 0.15119117 0.0 -0.008369788 -0.0059991335 0.0 0.09693126

arith.constant3 f4 [24, 1, 3, 48]
00000000: 1c75 a2be c024 18bb 4063 b63c cec5 cfbe
00000010: bb40 8abf 1cbc 5fbb be9d be3e 4907 c33f
00000020: b00b be3e 4b4d 0a3e f58d 093e 0783 dabd
00000030: 5448 223d 86f4 10bf 3766 b03d 9ec4 18be
00000040: 2fb9 c83f 44b3 28bf ea03 843d 40a4 033d
00000050: 9891 9bbc 306c 863d 53c8 a4bf 5ed7 693f
00000060: 942f 04bf d344 66bf 94f2 123d c73d b2be
00000070: b64e 30bd 0fd4 283f 1ae2 dd3d 8d57 d13d
00000080: ed1f b83d 7142 923d bbae 8ebd 9351 fbbe
00000090: c440 e53f ed73 efbe 62cc 20bf 0098 13ba
000000a0: 750b 29bf 5afc cfbe f764 233f f6ab 833d
000000b0: 83a6 8d3d 4efb 293c 83be 04be ee41 573f
000000c0: 850b 19be db37 fbbd 60a0 773d f1e8 8e3d
000000d0: ee12 b1be 5fb3 e73d 1c83 ca3e 7370 503f
000000e0: 9923 b73e fa91 e53d 76ad 59bd bdbf 8abd
000000f0: c0fa 26bd 5d42 74be bf2f 6e3b 1a61 babd
00000100: 7109 373f d9ac f5bc 4616 f2bd 98b6 a8bc
00000110: 7629 93bd b1fa 143e a9b5 4bbf b4d4 b53e
00000120: 3af6 febd 1f3b 7fbe 13fd 0b3e de45 083d
00000130: 2c55 593d 957b b13e a0bb 01be 20e9 113e
00000140: d592 0a3e bdba 3e3d 9ea6 0fbe c5bb 9dbd
00000150: 5ea2 8d3f 6d05 6f3d c134 26be 2ba4 c4bd
00000160: 59eb 43be d720 d23d 5f97 7b3e c002 893d
00000170: 8def 7a3d d06b 5f3c 5009 cfbd 1b53 473f
00000180: b3e8 673e 8091 e93c 6ce9 123d f791 9a3d
00000190: d520 683e b395 4d3e ead4 953e 0172 353f
000001a0: 521e 963e 10b0 06be 6022 743d 6427 6b3d
000001b0: e818 83bc a1c3 143e ea08 5a3e 9755 6dbe
000001c0: a632 a23e aecf 683e 96ef 43bd 3b5d 12be
000001d0: 3019 503c cd8d 1c3e a7d5 c8be a564 903e
000001e0: 8c24 153e f73d e93d 308b 4d3c 5393 303e
000001f0: 6852 94bc 9fc2 aa3e 42c1 b83d 96f8 1d3d
00000200: 9d20 973e ebbb c43d 349b 183d e399 75be
00000210: 5546 1b3f 0c8f fc3d 5826 053e 7612 4ebd
00000220: 9c4e b23c 1b1d c83c b4b7 6b3d 701b 8f3d
00000230: 235a 723e 8049 dbbc 98a7 a13c 1969 b33e
00000240: 6cd0 22bd 3ec2 17be 031e 02be 80a2 19be
00000250: 006f 26be 0019 55bd c2e6 ad3d a0cf ef3b
00000260: 9d78 273e f6ad bd3d 1b1b 1f3e 5b52 93bd
00000270: 20b9 8fbd 5b13 c8bd 1100 223e 4072 18be
00000280: 00a4 12be ece8 46bd 989f 913c c05f 5f3d
00000290: d6f8 bdbd 5539 043e e628 0dbe 609a 75bd
000002a0: a0c4 5dbd 28ae 863c d275 cf3d db21 2abe
000002b0: 8d07 243e 3b9a 26be 5630 b1bd ebc4 17be
000002c0: c80a 24be 00b2 25bd 2b42 283e 188e 0abe
000002d0: d4db 233d 8099 23bd c0fe 51bd 26a5 19be
000002e0: d8e8 e63c d6d7 fe3d 668c 1cbe 1433 15bd
000002f0: e0af 803d c3d1 01be 1600 74bd 0035 583d
00000300: 30bb 28bc 9819 87bc d070 c9bd 6038 8d3b
00000310: 2092 233d 686a 26be 6cda 2bbd ac17 343d
00000320: 6bba b2bd a8e1 ec3c c091 65bd b07b 29be
00000330: 3225 ed3d 1620 a23d b431 483d 68e1 adbc
00000340: 7aa1 e03d 1506 053e f446 083d 66d5 c03d
00000350: 6235 fa3d 6c92 13bd 1b11 1d3e 1639 e7bd
00000360: 9b97 0ebe 6c63 583d 3479 0f3d 0e05 2abe
00000370: f633 e23d 8010 5a3d 1203 c33d d0dd 053c
00000380: 1659 6dbd 6c89 13bd 4a40 b93d 7679 76bd
00000390: f6c6 cc3d fbc4 113e 368d 52bd 141c 043d
000003a0: 1461 113d 3211 d03d 1b87 0bbe c09c f8bd
000003b0: 40cd 003b 10b4 813d 76ad babd 06ac 9cbd
000003c0: 16e9 6bbd e85a ab3c 1606 4fbd 35dd 133e
000003d0: 1be1 213e 4015 243b 50ee 7cbc 30b1 eabd
000003e0: 7bb9 d1bd 1edb 06be 5b7a d2bd d0fc 30bc
000003f0: 3619 27be 403f 593b 0184 143e c3a3 06be
-0.31729972 -0.0023215264 0.022264123 -0.405806 -1.0801004 -0.0034139222 0.37229723 1.5236598
0.37118292 0.13506047 0.13433059 -0.10669523 0.03961976 -0.56623113 0.08613246 -0.14918754
1.5681514 -0.6589854 0.06446059 0.032139063 -0.018990323 0.06563604 -1.2873634 0.9134425
-0.516351 -0.8994877 0.03587587 -0.34812757 -0.043043815 0.65948576 0.10834141 0.10221777
0.08990464 0.07141579 -0.06966921 -0.49085674 1.791039 -0.46768132 -0.62811863 -0.0005630255
-0.6603311 -0.40622216 0.63825935 0.06429283 0.06916525 0.010374857 -0.129633 0.84084976
-0.149458 -0.12266513 0.06045568 0.06978024 -0.34584755 0.11313509 0.39553154 0.81421584
0.35769346 0.112094834 -0.05314394 -0.067748524 -0.040766478 -0.2385344 0.0036344377 -0.09100552
0.7149878 -0.029989647 -0.118206546 -0.02059488 -0.071856424 0.14548756 -0.79574066 0.35513842
-0.12449308 -0.24924897 0.13670759 0.033269756 0.05305974 0.34664598 -0.1266923 0.14249086
0.13532574 0.046564806 -0.14028403 -0.0770183 1.1065176 0.058354784 -0.16231062 -0.09601625
-0.19132747 0.1026017 0.24569462 0.06689978 0.06126361 0.013636544 -0.10109198 0.77861184
0.22647361 0.028511763 0.03586714 0.07547372 0.22668774 0.20076637 0.29264003 0.7087708
0.29320008 -0.131531 0.059603095 0.057410613 -0.016003087 0.14527752 0.21292463 -0.23177181
0.31679267 0.22735474 -0.04783591 -0.14293377 0.012701318 0.15288468 -0.39225504 0.28201786
0.14564723 0.11388772 0.012545392 0.172437 -0.0181057 0.3335161 0.09021236 0.03856715
0.2951707 0.09606155 0.03725739 -0.23984484 0.60654193 0.123319715 0.13002908 -0.050310574
0.021766 0.024427941 0.05754824 0.06987655 0.23667197 -0.026768446 0.019733235 0.3504112
-0.039749548 -0.14820191 -0.12706761 -0.15003395 -0.1625328 -0.052025795 0.08491279 0.007318452
0.16354604 0.09261696 0.15537684 -0.071934424 -0.07017732 -0.09769317 0.15820338 -0.14887333
-0.14320374 -0.048561975 0.017776296 0.054534674 -0.09275977 0.12912495 -0.13785133 -0.059961677
-0.054142594 0.016440466 0.10129894 -0.16614477 0.16018505 -0.16269772 -0.086517975 -0.14821212
-0.16019738 -0.040452957 0.16431491 -0.13530767 0.040004566 -0.03994131 -0.05126834 -0.15004405
0.0281872 0.12443511 -0.15287933 -0.036425665 0.062835455 -0.12677674 -0.059570394 0.05278492
-0.010298535 -0.016491696 -0.098359704 0.004309699 0.039934278 -0.16251528 -0.04195635 0.043967888
-0.08726963 0.028916195 -0.0560472 -0.1655109 0.1157936 0.07916276 0.048875526 -0.021225646
0.10968299 0.12990601 0.03327079 0.094157025 0.12217213 -0.03602831 0.15338556 -0.11290185
-0.1392502 0.05282919 0.035027698 -0.1660349 0.11045067 0.053238392 0.0952207 0.00817056
-0.057946287 -0.036019728 0.09045465 -0.060174428 0.09998886 0.14235298 -0.0514042 0.03225334
0.03549297 0.1015953 -0.13625757 -0.12139273 0.0019653589 0.06333172 -0.09115116 -0.07649998
-0.057595335 0.02091737 -0.050542913 0.14439853 0.15808527 0.002503708 -0.0154376775 -0.11459577
-0.10240456 -0.13169524 -0.10277244 -0.010802463 -0.16318211 0.0033149272 0.1450348 -0.13148408

arith.constant4 f4 [48, 1, 3, 1]
00000000: 46f2 3b3e 72eb 303f f9ec cdbe 4761 17be
00000010: 1e19 2dbe 71db c9bd d445 d03d dbfa 06be
00000020: 2919 3ebe 390b e13e 585b 72bf 7c4b 703f
00000030: 62a8 7c3f dbc1 5c3e f68c b0be a522 0dbd
00000040: 0d41 8f3c da0d 4f3f 8425 cdbe 2dba 4fbf
00000050: 8c5d 0240 d6b7 81bf 21b3 ef3e 310e f43e
00000060: a642 c7be 0367 bc3e 54f5 b53e 9151 37be
00000070: e848 663d b278 02be a20f 4dbe 4c88 8e3d
00000080: c4a3 f4bd c6a7 6f3e db3c 1b3d 4af6 163f
00000090: 1de3 4bbe b4cf 39be 5af5 113e 6cd6 713f
000000a0: 6c0c 11bf 3be7 9b3e 7a85 923d b3b7 7bbf
000000b0: b620 c53f 49f4 0dbe d96b 5a3f bf72 68bf
000000c0: d1c5 66bf 6ea7 cb3e 082b 673e 89f8 363f
000000d0: 070c e1bc a629 053e 215e 13be 1d53 fdbd
000000e0: a63f 36be 54cc 1e3d 0bdd dcbd afba b1bd
000000f0: e18d 22be 00a8 2e3c 672f ccbd c0db 67bb
00000100: 0a44 9cbd 9c78 5cbd 3568 533f b605 49bf
00000110: 6acf 60bc 16c5 3fbf b33e 223f 9870 373e
00000120: 115b 463f ba8f 1a3f 3878 f0be 69d1 913f
00000130: 3cdf c8bd c2ab bfbd 3cc5 0fbe 90bb 82bd
00000140: 38cb 5bbd 64a6 dd3e 2c10 34bf 281a 693f
00000150: 0863 febc 3e10 9abd 72c9 2cbe 6c9e 01bf
00000160: 9cbd 1f3f a76b 893d bf79 b7bd c8e1 17be
00000170: 18a1 a73d e047 1b3e d570 32bf bda9 783f
00000180: 5abd 57be c91f 233f 27f4 18be 0da7 3abc
00000190: 30c4 7eba 1687 b239 ee24 d5bd bf31 31be
000001a0: 9000 bb3d f566 873d 8428 143f 0446 3ebf
000001b0: 9367 68bf 14db 9ebd 7d68 513f 3e8e a63e
000001c0: 3f9c 853e a4b8 973c 61ca 623f ac6a 0b3f
000001d0: 5cf6 01bf 4022 d43b 676b aabd 04dc 83bd
000001e0: b95c 683f 8bc4 f9bc 2265 27be ef15 3e3e
000001f0: fbd5 b73e 28a3 243e 9ebb c5be e5f7 b13c
00000200: 07a4 2c3e d591 a2bd 00a6 27bd e858 20bd
00000210: cb41 4e3e a5f5 59bf ab7a ab3f 4c4c 92bc
00000220: fc0f 7d3c 01d6 d8bc 80a2 c5bb 20d4 32be
00000230: 7fed c9bd b4da 59bf 7df8 113f eee7 be3e
0.18354139 0.6910926 -0.40219858 -0.14783202 -0.16904113 -0.09856308 0.10169569 -0.13181631
-0.18564285 0.43953875 -0.9467063 0.9386518 0.9869443 0.21558325 -0.34482545 -0.034456868
0.017487073 0.8088051 -0.40067685 -0.81143457 2.0369596 -1.0134227 0.46816352 0.47667077
-0.38918036 0.36797342 0.35538733 -0.17902209 0.056221873 -0.12741354 -0.20025495 0.0695959
-0.11945298 0.23403844 0.037899833 0.5896956 -0.19910856 -0.18145639 0.1425375 0.94467807
-0.5665958 0.30449852 0.07154365 -0.9832718 1.5400608 -0.13862719 0.8532081 -0.9080009
-0.90145594 0.39776176 0.22575009 0.71472985 -0.027471555 0.13004169 -0.14391376 -0.12369368
-0.17797717 0.03876908 -0.10784348 -0.08678185 -0.15874435 0.0106601715 -0.09969979 -0.0035378784
-0.07630165 -0.05382596 0.8258088 -0.7852434 -0.013721326 -0.74910104 0.6337692 0.17914045
0.77482706 0.6037556 -0.4696672 1.1392032 -0.098082036 -0.09358932 -0.14040083 -0.06383431
-0.0536606 0.43291008 -0.70337176 0.91055536 -0.031053081 -0.07522629 -0.1687372 -0.5063236
0.62398696 0.06709986 -0.08958768 -0.14832222 0.08185023 0.15164137 -0.6970342 0.97134
-0.21068326 0.63720375 -0.14936887 -0.011392367 -0.0009718565 0.00034051453 -0.104074344 -0.17304133
0.09130967 0.06611434 0.5787432 -0.74325585 -0.9078304 -0.077566296 0.8180006 0.32530397
0.2609577 0.01852066 0.88590056 0.54459643 -0.5076654 0.0064738095 -0.083212666 -0.06438449
0.90766484 -0.030489227 -0.16347173 0.18563055 0.35905442 0.16077864 -0.38619703 0.02172465
0.16859446 -0.079379715 -0.040929794 -0.039147288 0.20142286 -0.8514045 1.339681 -0.017858647
0.0154457055 -0.026469233 -0.0060313344 -0.17463732 -0.09859752 -0.8509934 0.5701979 0.37286323

arith.constant5 f4 [4, 48]
00000000: f426 a43f dc4a 4d3e bdc5 2bbf 2ba8 793e
00000010: 2b88 c9be 3bb5 91be 8082 2fbe 82e3 9d3e
00000020: 66e6 19c0 5a64 a73e 9ffe a83d 8f51 d03e
00000030: 811f 70be 6d56 abbe ccdd 7bbe 8edc 2ebf
00000040: 32a9 213f 3cad 8c3e ebbb 323f d18e f6be
00000050: c124 47bf 0647 9a3f 1895 d0be fcc4 0abf
00000060: e475 17be 931b 2cbe 82f0 69bf 38d6 5c3f
00000070: 8d02 473f 5efb eb3d 08f5 a8be ea29 97bf
00000080: 7d96 a8be 7efa 593e 1002 bf3d 169e cdbe
00000090: 8154 863d 237d 8dbe b28e 31be 9c10 573f
000000a0: debc 8ebe 5142 a03d c146 64bf 4e28 aa3f
000000b0: c5b9 ae3e 589d e1bd a237 a3be 8b30 b03f
000000c0: 47be 1cc0 2baf 76be b666 0640 96ab 1a3f
000000d0: eb40 64be 32a6 583e 7aff 6dbe a468 df3f
000000e0: ef85 633f 4e5b 0e3e 8c6f 623e 360f f3bf
000000f0: 18c0 51be 3fe3 90bd 4073 9ebe 15af 283f
00000100: 8a05 02be c147 3c3f aa88 aabf b0f8 6f3f
00000110: 4482 2f3f 5e0e 9fbf 94bc d4be 15f6 a23f
00000120: dcea b6bf 24cd 2a3e fd7b 8a3e d5ef b5bf
00000130: 8dd9 7fbf b0b2 60be e4d6 6f3e 6d4a ebbf
00000140: 938b 8e3f d1fa b53d 1973 a2be 9773 8f3f
00000150: 7f5c 35be 0e42 34be 36a2 233e d743 76bf
00000160: ce3c 4a3f 4139 1ebf 8c1f 413f d7b9 c1bf
00000170: d2e7 74be 402b 71bf b04e 053f 92a9 9bbf
00000180: afe9 23c0 c090 7b3e 56d8 69bf 4f67 6b3c
00000190: 9314 3e3e b107 f93c 682d 5e3e 1a91 53be
000001a0: ced3 50c0 4447 c83d ed02 9e3c ca2e c0bf
000001b0: 2df1 41be a468 aabe 7a29 0f3e 4d95 4a3e
000001c0: 4b5b 1bbf b1fe 5cbf b655 c53e 8796 6bbd
000001d0: 59c4 a5be 5c97 debf 2868 073f 5bd4 efbe
000001e0: 933b 343f 17c7 8bbe e092 f3bd 6639 4a3e
000001f0: de66 debd e16f 443e 4091 c4bb 479e cb3f
00000200: 25ec 10c0 09f1 183e 0080 fe3b 17d6 eebe
00000210: 9582 34bd 39c2 f33d 8797 42be 83fe 3cbe
00000220: 8da2 d63d 3d17 a63e b49d cb3d ad23 a2be
00000230: 88fc 183e 510f f93e fc03 50be 8822 a0be
00000240: 6227 db3e f806 7c3e a6c1 92bf efb3 ffbe
00000250: 1d5d 743e f40a 933c f4f2 f93d c6eb 01c0
00000260: 36f2 0540 dc27 6b3e e9bc 173e f8c0 e53e
00000270: 6780 cdbd a7f8 7f3e 5014 8ebe a71d b93d
00000280: 349a 7a3d 6fb8 a0be 7565 e3be ff8a 553e
00000290: 547e 9a3e 7c3b a83b abce 773e 9724 ac3e
000002a0: 8e2d e63e 7cd0 9a3e 2d50 883f f1a1 853d
000002b0: 8bb1 c3be fb11 853d 00ae a53e 22a3 0f3f
000002c0: 0af7 183e eb95 f8bc ce3a 2cbe c9a9 ebbd
000002d0: 51ba 8a3e c2fe 423e 680a 65bd 3292 353e
000002e0: 115e 54ba 7928 513e bf0f 0c3f ff67 c4be
000002f0: 1f93 a4be 677b 07be e274 b8bd 3820 bebe
1.2824388 0.20048088 -0.670986 0.24380557 -0.393617 -0.2845858 -0.17139626 0.30837637
-2.4046874 0.3269375 0.0825169 0.40687224 -0.23449518 -0.33464375 -0.24596328 -0.6830529
0.63148797 0.27475917 0.6981799 -0.48155835 -0.77790457 1.2052925 -0.4073875 -0.54206824
-0.14791065 -0.16807394 -0.9138261 0.8626437 0.7773827 0.11522554 -0.32999444 -1.1809666
-0.32927313 0.21286961 0.09326565 -0.40159672 0.065590866 -0.27634534 -0.1733959 0.8400972
-0.2787847 0.07825149 -0.8917046 1.329355 0.34126106 -0.11016339 -0.31878382 1.3764814
-2.4491136 -0.24090259 2.100019 0.6041807 -0.22290389 0.21157148 -0.23241988 1.7453809
0.8887624 0.13902017 0.22112864 -1.8989017 -0.20483434 -0.07074594 -0.30947304 0.65892154
-0.12697425 0.7354699 -1.3322957 0.9373884 0.68558145 -1.242626 -0.41550124 1.2731348
-1.4290423 0.16679817 0.2704772 -1.4213816 -0.9994133 -0.21943164 0.23421818 -1.8382088
1.1136345 0.0888573 -0.31728438 1.120715 -0.17711066 -0.17603323 0.15979847 -0.96197265
0.7899903 -0.6180611 0.7543876 -1.5134839 -0.23916557 -0.9420662 0.5207319 -1.2161124
-2.561138 0.24566936 -0.9134573 0.014367892 0.18562536 0.030399175 0.21697009 -0.2066082
-3.2629275 0.09779218 0.019288504 -1.5014279 -0.18939658 -0.3328296 0.13980666 0.19783516
-0.60686177 -0.8632613 0.38541955 -0.0575166 -0.32376364 -1.7389941 0.52893305 -0.46841702
0.70403403 -0.2730033 -0.118932486 0.19748458 -0.10859464 0.19183303 -0.0059987605 1.5907677
-2.264413 0.14935698 0.0077667236 -0.46647713 -0.044069845 0.119022794 -0.19003116 -0.18456464
0.10480223 0.32439604 0.09942189 -0.31667843 0.14940083 0.48644498 -0.2031402 -0.31276345
0.42803484 0.24612033 -1.1465347 -0.49941966 0.23863645 0.017949559 0.12204543 -2.0300155
2.0929084 0.22964424 0.14818157 0.44873786 -0.100342564 0.24997197 -0.27749872 0.09038859
0.061182216 -0.31390712 -0.44413343 0.20853804 0.30174506 0.005134044 0.24199931 0.33621666
0.4495663 0.30237186 1.0649468 0.065250285 -0.38221392 0.0649757 0.32359314 0.56108296
0.14937988 -0.030344924 -0.16819307 -0.11506993 0.27095273 0.19042495 -0.055918127 0.1773155
-0.0008101175 0.20425595 0.54711527 -0.38360593 -0.32143494 -0.13230668 -0.090066686 -0.37133956

arith.constant6 f4 [4]
00000000: b375 d3bd 84b1 9f3d 5381 9b3c a20c e23c
-0.10325184 0.0779753 0.018982565 0.027593914
