machine/gesture_model.tflite (tflite, 6060 bytes, 6 tensors)

arith.constant f4 [12]
000000 00 00 00 00 ed f4 bc bd 17 c0 5e bc 55 92 f3 bc
       0.0 -0.092264034 -0.0135956025 -0.029732862
000010 50 47 4b 3e 02 bd 90 3d 47 8e 4d bd 45 80 cb 3d
       0.19851422 0.070673004 -0.050184514 0.09936575
000020 2c 1f d1 bb 85 1a b6 3d e0 7c 26 3d 00 00 00 00
       -0.00638189 0.08891777 0.040646434 0.0

arith.constant1 f4 [14]
000000 e2 31 22 3e 00 00 00 00 ea c5 f3 3d 73 60 ef 3e
       0.15839341 0.0 0.119029835 0.46753272
000010 17 a8 63 bd f3 d9 44 be 00 00 00 00 e4 a8 df bd
       -0.055580225 -0.19223766 0.0 -0.10920885
000020 21 a9 01 3e cf 25 ea 3d 7f 02 5d be 00 00 00 00
       0.12662174 0.11432993 -0.21582983 0.0
000030 55 f8 a1 3d 00 00 00 00
       0.07908694 0.0

arith.constant3 f4 [12, 1, 1, 14]
000000 a0 9e 12 3d db 72 90 be 02 b5 d5 be e8 7f 2a 3e
       0.035795808 -0.28212628 -0.4173966 0.16650355
000010 79 56 dc be b8 ef b9 be 4a 47 84 3e 9b d4 d1 be
       -0.43034723 -0.36315703 0.2583564 -0.40982518
000020 82 3a b4 3e 98 19 a0 3e 16 f6 44 be ff 10 e3 be
       0.35200888 0.31269526 -0.192345 -0.44348904
000030 17 9d db be 86 ea d3 3e 6b 58 bf 3e 9e 9d ce be
       -0.42893288 0.41389865 0.37372145 -0.40354627
000040 db 9d c9 3e 1b ea 92 3e 1a ee 05 be 52 a9 c7 3f
       0.39378247 0.28694233 -0.1307911 1.5598547
000050 6c 29 35 3e ff d1 a2 3e 5a 9b 9b 3c c3 35 6e bd
       0.17691582 0.3180084 0.018994976 -0.05815674
000060 b7 93 99 3f c0 cd c5 3c 32 ab ed 3e ae 5b f0 3e
       1.1998204 0.02414596 0.46419674 0.46944946
000070 c8 40 6d be 00 81 1b 3d 9f 1e 8d be 4e 1d 48 bd
       -0.23169243 0.03796482 -0.27562425 -0.048856072
000080 4b 1f 84 3e 59 33 06 be ee 3a 4d be 9d 49 14 be
       0.25805125 -0.13105525 -0.20042011 -0.14481206
000090 ab 89 35 3e ce c5 63 bc 5c e8 11 3e 72 63 e5 3e
       0.17728297 -0.013902141 0.14248794 0.44802433
0000a0 43 f7 4d 3e fb 7f 7b be 05 a6 7e 3e ec 09 38 3e
       0.20113854 -0.2456054 0.24868019 0.17972535
0000b0 88 a2 98 b9 99 e0 b3 bf 7b f0 02 be ef 8d 26 3f
       -0.00029112794 -1.4052917 -0.12787049 0.65060323
0000c0 ea 8c 95 3e bf 50 15 3f f2 c4 23 bf 57 45 a9 be
       0.2920907 0.58326334 -0.6397239 -0.33060715
0000d0 cf f9 e6 3e f4 33 79 3e f2 78 e6 b8 48 ef cb 3e
       0.45112464 0.24336225 -0.000109897825 0.39830995
0000e0 13 4a 7c 3f 55 38 c8 be 9c 27 25 3f 95 2b 93 3f
       0.9855053 -0.39105478 0.64513564 1.1497675
0000f0 da 39 c1 3d 48 d3 60 bf ea 1c 86 3e f7 1b b4 be
       0.094348624 -0.8782239 0.26193935 -0.35177585
000100 2b ff a3 3f 2d 62 b7 3f 26 72 8f bf 94 97 0a 3e
       1.2812246 1.4326836 -1.120671 0.13534385
000110 c1 0c 51 3e 74 ee e1 be bd 55 0d 3f 36 d3 be 3e
       0.20415021 -0.44127238 0.5520895 0.37270516
000120 d2 3f af 3e 4e f4 8a bf 34 06 c8 3d 5b a7 5f bf
       0.3422838 -1.0855806 0.09766808 -0.8736474
000130 5e 93 b4 3e 08 bb 86 3d 8a 37 1b bf 2f 07 be be
       0.35268682 0.06578642 -0.6063162 -0.37114856
000140 47 de 04 bf 98 cc aa bd f9 bb ff bc 59 c5 8d be
       -0.5190167 -0.083398044 -0.031217562 -0.27689627
000150 7f 4c 2c bd 7e 1a ab be 01 39 f7 3e e9 8e 83 be
       -0.04206514 -0.3341865 0.48285678 -0.2569497
000160 80 b4 5e be 09 4b 20 3f 98 49 dc bd c1 50 d6 3e
       -0.21748543 0.62614495 -0.107562244 0.41858485
000170 dc 14 5e bf 2b 87 ed be b8 ed e7 3d 20 bd e9 3d
       -0.8675058 -0.46392187 0.11324638 0.11413026
000180 e6 c8 c1 3e 7e 10 be 3e 03 6a 01 3f db be cf be
       0.37848586 0.37121958 0.50552386 -0.405753
000190 7c 9b 17 3e 5b 9d cd 3f 3d 23 8b 3e 38 5a 98 bf
       0.14805406 1.6063646 0.27175322 -1.1902533
0001a0 6c 0e 22 be 05 8f b0 be c5 2d c6 3f 67 24 b8 3f
       -0.15825814 -0.34484115 1.5482718 1.4386109
0001b0 00 de 08 bf f0 a5 f8 bd 91 35 89 3e 60 67 94 3d
       -0.53463745 -0.12141025 0.2679868 0.0724628
0001c0 e6 c4 a2 be a8 cb 86 3e 94 23 a6 3c 03 38 a5 3f
       -0.31790847 0.26327252 0.020280637 1.2907718
0001d0 72 c7 b4 3e 66 63 11 3e 24 c0 e7 bd b9 04 20 3f
       0.35308415 0.14198074 -0.11315945 0.62507206
0001e0 c4 4b e0 3e 9e 2b 1f 3f af e0 7c 3f 8b 23 bf be
       0.43807805 0.6217593 0.9878034 -0.37331805
0001f0 f8 e9 ee 3d d4 81 72 3e 4f c1 09 bf 30 56 2d 3d
       0.1166572 0.23682338 -0.5381059 0.042318523
000200 31 9a 87 3e 5e b9 ea bf fd c9 07 bf 8e f1 01 3f
       0.26484826 -1.833782 -0.53042585 0.5075921
000210 6c d1 13 3e 7c d6 df 3e 13 e2 8b bf 9f c7 4b bf
       0.14435357 0.43718326 -1.0928367 -0.7960147
000220 55 77 33 3f c0 ee 60 3c 56 75 40 3f d0 2f 5d 3e
       0.7010396 0.013728797 0.7517904 0.2160027
000230 47 e5 81 bc 0c 63 62 3e 3d a5 0b be f3 ed 14 40
       -0.015856398 0.22108096 -0.13637252 2.3270233
000240 b3 6a 2e bf 67 e3 af 3e 68 2e d1 be 83 a8 91 bc
       -0.6813156 0.34353182 -0.40855718 -0.017780548
000250 0e 39 f9 3e fb 1e 15 3f a7 46 89 bd f6 b7 56 be
       0.48676342 0.582504 -0.06702929 -0.20968613
000260 30 f0 f9 3e 74 a9 94 3e 11 e9 e8 be 20 b4 4a bc
       0.4881606 0.29035532 -0.45490316 -0.012372047
000270 e3 e6 70 be 48 d6 f4 bd fa 98 d2 be 0e 98 02 be
       -0.23525576 -0.119549334 -0.41132337 -0.12753317
000280 f4 46 cd be 54 7f 8d bd 9c 47 0b be d0 80 02 bd
       -0.40093195 -0.069090515 -0.13601536 -0.031861126
000290 9c 7d 88 bd 10 7c ec 3e 36 6d 1e be dc 42 27 be
       -0.06664583 0.46188402 -0.15471348 -0.16334099

arith.constant4 f4 [14, 1, 2, 1]
000000 d7 d1 d8 3d b0 67 6b 3f 99 29 5a be ae 27 d7 be
       0.10586899 0.9195509 -0.21304931 -0.4202246
000010 1c ff e2 3d 50 c8 8d 3f a7 15 1f be f4 8b 3b bf
       0.110838145 1.1076756 -0.15535603 -0.73260427
000020 28 0c 8f 3c b6 ce d6 3e 0d 13 33 3f 4c 50 de be
       0.017461851 0.41954583 0.69950944 -0.43420637
000030 7c 96 b8 bd 70 fb 7f be 70 9f 5c 3f bb ee e3 bd
       -0.090130776 -0.2499826 0.8618078 -0.111295186
000040 88 79 55 bf 2f f2 97 3e 47 c9 60 bf 1a b7 ab 3e
       -0.83388567 0.2967696 -0.87807125 0.33538133
000050 91 e9 90 3f 1f 56 e5 be 8a fd 81 be 60 24 97 be
       1.1321279 -0.44792268 -0.25388747 -0.2951994
000060 f0 5d e8 3e 36 5d 64 3e 6b 68 cb be 89 8b c9 be
       0.4538417 0.22301182 -0.39728102 -0.3936427

arith.constant5 f4 [5, 60]
000000 f4 e7 5c 3e 77 39 d4 be b0 ce dd bc ae 59 3d bf
       0.21572858 -0.41450092 -0.027076095 -0.73964965
000010 ac 67 5c 3f a1 5c 24 be 36 a0 e7 be 9d 09 71 3f
       0.8609569 -0.1605096 -0.4523942 0.94155294
000020 a7 60 87 3e 50 ec b3 be 27 cd 7c 3f d8 10 a7 3d
       0.26440927 -0.3514123 0.9875054 0.081575096
000030 52 cd 87 3e 62 67 7e 3e 7f 88 47 be 9e 07 9c be
       0.26523834 0.24844125 -0.19485663 -0.3047456
000040 5c 68 ba 3e 2d fb af be e4 20 76 be b3 54 09 3f
       0.36407745 -0.3437132 -0.24035984 0.53644866
000050 cd 61 03 3e 12 a3 9b be 8f f3 2f 3e 5c 95 7e 3e
       0.12830277 -0.3039785 0.17182754 0.24861664
000060 f2 1e 1c 3e 19 66 ec 3d 7e 3a a5 bd 86 d2 44 be
       0.1524618 0.11542911 -0.08067797 -0.19220933
000070 45 03 51 3e 9f c9 f7 bd 4c e4 21 3e e1 97 52 3c
       0.20411403 -0.12099003 0.15809745 0.012853594
000080 68 a5 82 be 61 af 95 3e bd 77 8f 3e 80 23 70 3e
       -0.2551682 0.29235366 0.2802104 0.23451042
000090 c8 83 3f be 35 3f 93 3e ac 73 5b 3e 5c 9e 19 3e
       -0.18702614 0.2875916 0.21430844 0.15001816
0000a0 59 59 20 be a6 74 9e 3e 77 e6 05 bd 55 04 17 3e
       -0.15659083 0.3094837 -0.03269049 0.14747746
0000b0 98 81 72 be f7 05 7e 3e 53 c6 0f 3e 18 29 be 3d
       -0.23682249 0.24806963 0.14040498 0.09285182
0000c0 98 05 95 3e 99 56 b4 3d 0e 7f 3d 3e 48 5a 21 3d
       0.2910583 0.0880558 0.18505499 0.03939274
0000d0 79 f1 a8 bd 1e da c6 bd b2 19 95 3e 25 bc e8 3c
       -0.08249182 -0.09709571 0.29121166 0.028410027
0000e0 0c 05 85 3e 8f 50 11 3e ed df ed 3d 58 e6 7b 3d
       0.25980413 0.14190887 0.11614976 0.06149897
0000f0 34 77 ec bd e7 c8 9e be 73 8c 6a be f4 b3 1b be
       -0.11546174 -0.3101265 -0.2290514 -0.15205365
000100 2a 45 a5 3e 41 2c 17 3f 9f 12 fa bc e2 11 a7 3e
       0.3227933 0.590519 -0.030526457 0.3263083
000110 57 f2 09 bf ea 48 73 bf bf 13 a0 3f f4 6f ae 3d
       -0.53885406 -0.95033133 1.2506026 0.08517447
000120 00 77 28 bb e7 7a 0b 3e 3f 85 7c be 14 48 88 3e
       -0.0025705695 0.13621102 -0.24660204 0.2661749
000130 c8 0f 47 bd c6 58 c4 be 63 2c da 3d a2 15 14 be
       -0.048599035 -0.3834898 0.10652997 -0.14461377
000140 31 3a ef bd c9 83 8b bb 16 51 83 3f f8 fe 4b 3e
       -0.11681021 -0.0042576534 1.025912 0.19921482
000150 74 42 0e be 31 3c 9a 3e b0 98 6a 3d 40 5a 09 3d
       -0.13892537 0.30124047 0.05727452 0.033533335
000160 26 2b 12 bf b5 65 09 bf 35 53 4e 3e c5 a5 f1 3e
       -0.5709709 -0.5367082 0.20148928 0.47196785
000170 da 1d c9 3e c0 58 f0 3e 01 b7 ca 3d e0 40 9b 3e
       0.39280587 0.4694271 0.098981865 0.30322933
000180 b8 32 09 3d 10 d9 75 3d 84 ab b9 3d 7b c2 94 be
       0.033495635 0.06002146 0.09065917 -0.29054627
000190 e3 10 fe 3d a8 55 e5 3b f1 e9 13 3e d9 33 50 3e
       0.12405565 0.0069987364 0.1444471 0.20332278
0001a0 be fe 6f bc 58 34 0f 3d c4 ee b9 3d 87 f8 27 be
       -0.014648138 0.03496203 0.09078744 -0.164034
0001b0 68 4b 55 be 0a 15 16 be 40 f3 1b be d6 8b 70 3d
       -0.20829546 -0.14656463 -0.15229511 0.058727108
0001c0 1c d4 11 3d ab 02 2d 3e db a0 11 3d 6c 34 70 be
       0.035602674 0.16895549 0.035553794 -0.23457497
0001d0 05 9e 4a be 6e 25 89 3d 5c b3 91 3e 9c 01 a6 3d
       -0.19786842 0.06696592 0.28457153 0.08105776
0001e0 30 eb 46 3d 87 b2 9e bd c0 2b 7b 3e cc 6b 9b bd
       0.048564136 -0.07748895 0.24528408 -0.0758892
0001f0 14 e7 bd bf c7 df cf be 93 2a b3 3e 46 45 c3 bf
       -1.4836144 -0.40600416 0.3499342 -1.5255516
000200 3f 21 92 bc 15 dc a9 3e 4a 37 58 3f 50 89 dc 3d
       -0.017838119 0.33175722 0.84459364 0.10768378
000210 34 0a 0b 3e 0b 45 14 be c0 e2 ba 3b 51 6d 68 be
       0.13578111 -0.14479463 0.0057033002 -0.22697951
000220 06 43 a9 3c e1 61 16 be 42 99 05 3e 87 e0 c1 be
       0.020661842 -0.14685775 0.13046744 -0.37866613
000230 3f 4c 35 3e 38 bb 65 3d 81 16 52 3f c4 1a 65 3e
       0.17704867 0.05608675 0.8206559 0.22373492
000240 4c 7d 8a 3e 96 48 c4 3d d6 42 3c 3e bd cb 2d 3e
       0.2704872 0.09584157 0.18384871 0.16972251
000250 95 c3 bb 3e f5 1d 14 be f2 94 51 be 66 63 c2 3c
       0.36672655 -0.14464553 -0.20466974 0.023729037
000260 c0 10 3c be 82 69 5f bb 5f 07 e0 be c4 49 6a 3e
       -0.18365765 -0.0034089987 -0.43755624 0.22879702
000270 1b ce 33 be b6 eb d5 3c 5c 1a 12 3e aa 31 ea 3d
       -0.17559092 0.026113372 0.14267868 0.11435254
000280 47 de 35 be 9b a5 fc bc 45 1b 13 3e cf 69 04 3c
       -0.17760573 -0.030840686 0.14365871 0.008081867
000290 07 2b 52 be 83 fd 28 bd 17 45 0f 3e c8 c4 89 3e
       -0.20524226 -0.041257393 0.139912 0.26907945
0002a0 c1 60 3b be 0a 1a 94 bd c4 81 56 3e f3 81 8f be
       -0.18298627 -0.07231529 0.20947939 -0.2802883
0002b0 ff 5f a3 3d b7 5c 39 bb b4 f7 96 bd 3d 56 86 3d
       0.07977294 -0.0028284022 -0.07371464 0.065594174
0002c0 63 cc 1e be ce e0 49 3e f7 d6 a9 be d0 75 30 3d
       -0.15507655 0.19714662 -0.33171818 0.043081105
0002d0 14 9a 72 3e da 5d 6e bd e3 36 13 be 74 02 f9 3e
       0.23691589 -0.058194973 -0.14376406 0.48634684
0002e0 42 2f 48 c0 fd b3 0b c0 b5 a6 44 3e 8f 8b 8b bf
       -3.1278844 -2.1828606 0.19204219 -1.0901965
0002f0 4d 32 b4 3e 79 73 41 3f 84 8d c5 bf 74 0c 6c 3e
       0.35194626 0.7556682 -1.5433812 0.23051625
000300 e2 5c 39 be 23 1c 34 bf 30 49 f7 3d bc 44 a1 be
       -0.18101838 -0.70355433 0.12074506 -0.31497753
000310 d3 ea bf bd 16 1c c7 3e 7c 2b d7 be 59 8a ad bd
       -0.09370961 0.38888615 -0.42025363 -0.08473653
000320 a9 69 6d bf 9f d1 5a 3e e2 09 82 bf ea 3f 96 3e
       -0.9273935 0.21369027 -1.0159266 0.29345638
000330 dc ef 6a 3e e1 92 3b bf d1 ca 63 be 3f 61 35 bf
       0.22943062 -0.73270994 -0.22245337 -0.7085151
000340 5b 16 42 3f 3c 91 00 3f aa e2 a7 3d 11 87 4d 3f
       0.7581536 0.5022161 0.081975296 0.8028422
000350 92 b7 fc be 6d 4a 3c bf 81 20 1c be 76 73 40 3e
       -0.49358803 -0.73551065 -0.15246774 0.18794045
000360 14 ed 95 3e f6 f7 22 bd 68 a1 20 be 4b 6a 66 be
       0.2928244 -0.039787255 -0.15686572 -0.22501485
000370 94 f8 83 3d 45 e1 a8 bd 21 4f 85 3e fd 04 40 3e
       0.06443897 -0.08246092 0.26036933 0.18751903
000380 49 ad 86 3e 3e cb 2d 3e 4c f5 04 bc 42 a4 af bd
       0.2630408 0.16972062 -0.008115124 -0.085762516
000390 2c f0 96 be 97 99 db 3d 24 61 de 3d 21 d4 db 3d
       -0.29480112 0.10722654 0.10858372 0.1073382
0003a0 db 70 42 3e 89 8c ea bd 49 a0 f8 3d 03 bf 9a 3e
       0.18988363 -0.11452586 0.12139947 0.30223855
0003b0 bd 7c 2a bd 94 e0 6a 3e 6d 96 b7 3e 60 bb 9f bc
       -0.041622866 0.22937232 0.35856953 -0.019498527
0003c0 1c e6 e9 bd a8 01 03 be 32 0b 5d 3e a4 44 ae bd
       -0.11420843 -0.127936 0.21586302 -0.08509186
0003d0 0b e8 c1 be 1f a9 a9 3e 23 a7 a2 3d 98 cf 18 c0
       -0.37872347 0.33136842 0.07942035 -2.3876705
0003e0 74 11 88 3d 04 c8 b4 be 46 59 d7 be c0 f1 f0 3d
       0.06643954 -0.3530885 -0.42060298 0.1176486
0003f0 70 09 6c 3d cd 90 05 3f 48 ef 75 be 5d b2 b4 3e
       0.057626188 0.52174073 -0.2401706 0.3529233

arith.constant6 f4 [5]
000000 bb 57 fb 39 ae c6 6d ba 6e 81 11 3c 04 6a 10 3d
       0.00047939815 -0.0009070438 0.008880956 0.035257354
000010 ac da 1e bd
       -0.03878276
